force_calibration_model_optimized.pt (torch, 55121 bytes, 8 tensors)

weight f4 [64, 24]
000000 99 01 88 be 1d 8e ed 3e 5e da 4e 3c b8 de 23 3c
       -0.2656372 0.46397486 0.012625305 0.010001831
000010 a1 25 fe 3e cc 06 c2 be c7 da 32 3e 6f d6 3b 3e
       0.49638084 -0.3789581 0.1746627 0.18343519
000020 9e bd 59 bd 75 5b 7b 3d 6f fc 20 3f 1f 37 02 bf
       -0.05315935 0.061366517 0.62885183 -0.5086536
000030 05 77 43 bd 83 17 fd 3d 4d c3 70 bd 34 c4 ec 3e
       -0.047720928 0.12358 -0.058780003 0.4624344
000040 75 e4 09 3f 5d 6a 39 bf 8f 2f 91 be 1c 99 10 3d
       0.5386422 -0.7242792 -0.28356597 0.035302266
000050 62 f6 87 3d 41 64 e7 3e 06 09 af 3e 49 c6 5a bf
       0.06638791 0.45193675 0.34186572 -0.8545881
000060 0a 77 12 3f b2 5e 32 3f 40 1e f2 be 2d 16 83 be
       0.5721289 0.69675744 -0.47288704 -0.25602856
000070 c5 63 52 be 45 28 c7 bd 62 8c 85 3e 4e c8 25 3e
       -0.20545872 -0.09724478 0.26083666 0.16189691
000080 a6 d2 82 be 21 b5 38 be 80 f3 06 be 04 79 a2 3c
       -0.25551337 -0.18037845 -0.13178825 0.019833095
000090 a0 5d d2 3d 62 12 4e bd b2 7f 40 3e b3 1a 88 3c
       0.10271764 -0.0503105 0.18798712 0.016614294
0000a0 08 d7 a7 bd c8 5d 01 3e 29 16 9d bd 99 9b 1b be
       -0.08195311 0.12633431 -0.07670242 -0.15196075
0000b0 59 a5 47 3f 4e c7 b2 bd 5f 17 86 be 4d e5 a6 3e
       0.77986676 -0.087294206 -0.26189706 0.32596818
0000c0 83 bd 7d be 6c 1a 00 3f 36 67 91 3a b5 16 a0 be
       -0.24779324 0.50040317 0.0011093381 -0.31267324
0000d0 ce c3 d0 bc 39 f1 e8 be 01 67 06 bc b6 78 5c 3c
       -0.025483992 -0.45496538 -0.008203269 0.013456514
0000e0 72 42 65 be 89 14 70 be 4e a3 01 be 65 25 49 be
       -0.22388628 -0.23445334 -0.12659952 -0.19643171
0000f0 37 93 9f 3e 3d 2a a1 3d 7b 16 22 be 57 57 63 be
       0.31167004 0.078693844 -0.15828888 -0.22201286
000100 e0 4f 71 bd 6a 53 e6 bc a2 86 86 3e da e4 fa 3e
       -0.058914065 -0.028115947 0.26274592 0.49002725
000110 0d 73 12 bd 8d bc 1d be d6 8f 88 3e d5 b1 5c bd
       -0.035754252 -0.15403958 0.26672238 -0.05388053
000120 79 e5 60 3e d9 34 d9 3d ac b0 66 bf 98 f4 14 3f
       0.21962537 0.10605783 -0.9011333 0.5818572
000130 7d 48 b7 be 7a 97 ca bc d6 ba 1d 3d 29 c8 b5 3e
       -0.35797492 -0.024730433 0.03850826 0.35504273
000140 85 b8 d0 3d 2f 20 34 bd 69 19 34 be 00 44 e2 3e
       0.10191444 -0.043976005 -0.17587818 0.44192505
000150 6d 0f 0e 3e 76 96 a9 bd 40 3d bc 3d 3a f5 33 be
       0.13873072 -0.08280651 0.0919137 -0.17574015
000160 f5 9d d7 be 76 4e 99 3e 56 8c f1 be 4c 4b 13 bf
       -0.421127 0.29942673 -0.4717738 -0.5753677
000170 cc b1 1f 3f 76 38 70 be 0a aa 6e be c1 d6 fd 3d
       0.6238067 -0.23459038 -0.23307052 0.12394477
000180 9c ce ba be 1f f8 ed be db 1b 9f be 36 12 e7 3d
       -0.36485755 -0.46478364 -0.3107594 0.1128277
000190 dc f5 f1 3e 15 26 39 3e 68 ac 7b be 2c b3 65 be
       0.47257888 0.18080933 -0.24577487 -0.2243163
0001a0 02 d8 af be 25 47 1c bd 08 9c 64 3e 65 c3 d4 3c
       -0.34344488 -0.038153786 0.22325146 0.025972078
0001b0 66 68 ec 3d cd 37 ed 3c 87 8a 87 3c 06 9c bf be
       0.1154335 0.028957272 0.016545547 -0.37423724
0001c0 3c 09 3e 3f 91 d8 b4 be 90 2f 20 3e 72 d3 52 3e
       0.7423284 -0.35321477 0.15643144 0.20588472
0001d0 52 2e f1 bd 69 dd 79 be 87 49 e0 3e f7 e5 15 bd
       -0.11776413 -0.24400868 0.43806097 -0.036596265
0001e0 9f 41 9b 3e 8a 0b 95 3e c1 db 02 3f 42 38 5b 3d
       0.30323502 0.29110366 0.5111657 0.05352045
0001f0 ef ef f8 bd 2c f2 32 bf 53 d2 33 bd 9c 99 ef 3e
       -0.12155139 -0.69900775 -0.043901753 0.46796882
000200 50 69 3b 3f 17 ec 8f 3e d1 9a 27 3d cb 3d df be
       0.7320757 0.2810981 0.04091913 -0.43601832
000210 00 c0 85 3c 62 d3 0c 3f ed 1b 3a 3f 13 50 eb 3e
       0.016326904 0.55010045 0.7269886 0.4595953
000220 48 54 6b 3d bd 12 1f bd 22 d0 bd 3e c9 a2 1b 3e
       0.057453424 -0.03883623 0.37072855 0.15198816
000230 3c 96 8a 3f 27 10 08 3f 51 58 1d be 70 c5 d4 3d
       1.0827098 0.53149647 -0.15365721 0.10389221
000240 bf 91 e9 3e 1a 12 92 be aa b5 29 bf 7b 5c 16 bf
       0.45619008 -0.28529435 -0.6629282 -0.58734864
000250 75 fa a8 be ca e0 5e 3e a9 73 2e 3e 18 f6 d1 3d
       -0.33003584 0.21765438 0.17036308 0.10252017
000260 c3 79 f2 bc 7c eb b3 be 48 f9 17 be de 7b 3f 3e
       -0.029599076 -0.35140598 -0.14841187 0.18699595
000270 13 84 11 bc 81 0c eb bd ee ea ea 3e c2 23 fc 3e
       -0.008881587 -0.11476994 0.45882362 0.4924603
000280 62 60 9e 3e 0b cd ad 3e f7 f7 fd be b6 c1 f3 3e
       0.3093291 0.33945498 -0.49603245 0.47608727
000290 39 c2 1b 3f e9 02 1b 3f 4f 40 3b 3f 56 fd fb 3e
       0.60843235 0.60551316 0.73145 0.49216717
0002a0 27 d8 dc bc 79 12 30 3e 87 dd 89 3d 43 ef e0 3e
       -0.026958538 0.17194547 0.06731706 0.43932542
0002b0 6f 0c 5f 3e 2a b5 e2 be 5d 1d c6 bd a5 e7 37 bd
       0.21782087 -0.44278842 -0.09673569 -0.044898648
0002c0 20 f2 fe 3a ef 10 68 3e ba 0a e9 bc a9 ae 42 be
       0.0019450821 0.2266271 -0.028447498 -0.1901194
0002d0 47 b6 e0 bd bc e6 2c 3d 7e b0 b1 bd 07 d3 1b bd
       -0.10972267 0.042212233 -0.08676241 -0.03804305
0002e0 3f 03 a7 3e 19 65 80 3c 79 bc 5e be 67 69 4f be
       0.32619664 0.015673207 -0.21751584 -0.20255052
0002f0 66 c0 82 3d 18 4f 10 3f 72 af 0a 3f 3d 23 78 bd
       0.06384353 0.5637069 0.5417396 -0.06058048
000300 57 63 b0 3e 79 07 2f bf b4 cf 95 be f4 14 19 3f
       0.3445079 -0.6837078 -0.29260027 0.59797597
000310 7a fd 7d 3d af df d9 bd 10 eb 6c 3d d7 1c fd bd
       0.062009312 -0.106383674 0.05784136 -0.123590164
000320 7e 64 ca bd 64 14 40 3d f0 39 9e 3e f3 27 19 be
       -0.098824486 0.046894446 0.30903578 -0.14956646
000330 e3 f1 68 bd e7 09 af be 49 c2 18 3d 41 c1 80 be
       -0.056871306 -0.34187242 0.03729466 -0.2514744
000340 ec b3 97 3e 24 7c 83 be 84 52 2a bf e5 20 d8 3e
       0.29629457 -0.2568065 -0.6653216 0.42212597
000350 22 46 db 3e 96 34 c4 be cb c9 3d 3e 92 4a 9c be
       0.42826945 -0.3832137 0.18534009 -0.30525643
000360 e8 31 6c be f4 98 ea be bd 14 b7 3e fb 70 18 3f
       -0.23065913 -0.4581982 0.3575801 0.59547395
000370 a4 2a 8e 3e 42 4b 64 3f a9 1f 63 be 81 67 0e 3d
       0.27766907 0.89177334 -0.22180046 0.034766678
000380 94 1d 20 3d 01 d4 e7 3e b9 f2 4f bd b4 e4 09 3f
       0.039090708 0.45278934 -0.050768588 0.538646
000390 8c 80 cb 3c e9 9d e1 3e ee cd 0f 3d 46 54 c9 bc
       0.02484157 0.44065788 0.0351085 -0.024576318
0003a0 f0 dc 42 be 3c f5 9c be f9 6d 1d 3e 7a 66 33 3f
       -0.19029593 -0.3065585 0.15373982 0.7007824
0003b0 98 13 03 3e 5c 5d 80 bd 19 f8 ec be f7 7b 57 bf
       0.12800443 -0.06267807 -0.46283033 -0.8417353
0003c0 2d b4 a1 3c d0 0c cc be 27 d4 34 3e 84 ab 6d 3d
       0.019739235 -0.39853525 0.17659055 0.0580249
0003d0 f1 c2 51 3d 3c 8a ce 3e 9f 3f 9a be 35 47 ef be
       0.0512113 0.4033984 -0.30126664 -0.46734014
0003e0 e2 97 41 3f 79 2c 4e 3e a5 c3 c6 be f5 19 bd 3e
       0.7562238 0.20134152 -0.3882114 0.36933866
0003f0 10 38 55 3e 21 1a d0 3d 91 0c 4e 3f df 3e 11 be
       0.20822167 0.10161234 0.80487925 -0.1418414

bias f4 [64]
000000 4d 6b e4 be ad 20 e4 3e dc 10 f9 be b7 66 a7 bd
       -0.44613114 0.4455618 -0.48645675 -0.08173888
000010 1c 98 0c 3d a4 29 6a bf 81 18 24 bf 7e 91 33 3e
       0.03432475 -0.9146979 -0.6409989 0.1753597
000020 c1 17 5b be 08 ea a3 be 81 53 07 bf eb 92 c5 be
       -0.2139578 -0.3201449 -0.5286179 -0.38588652
000030 89 fa 74 be 66 7a 58 bf ae 20 0a be ea 06 2c 3e
       -0.23923697 -0.84561765 -0.13489029 0.16799513
000040 c5 7f cf be 58 f8 63 3e 70 0d 81 bf 4e 6f 49 3d
       -0.40527168 0.22262704 -1.0082226 0.049178414
000050 66 e4 00 3e 14 ab a1 3e 99 00 c7 be 26 bc 32 bf
       0.12587127 0.31575835 -0.38867643 -0.6981834
000060 49 41 f8 be ed 7b e5 be 9a 2b 2c bf 97 df 88 be
       -0.4848731 -0.4482111 -0.6725403 -0.26733086
000070 fd 6f 64 3e e9 c6 90 3e f8 38 44 3d 78 dc bd bd
       0.22308345 0.28276756 0.047905892 -0.09270567
000080 45 c5 88 3e bc a9 64 3e 47 a1 8c bf 67 29 46 3e
       0.26713005 0.22330374 -1.0986718 0.19351731
000090 bc c1 58 bf bc 61 90 3e d0 ae 3b 3d 0b 1b 56 bc
       -0.84670615 0.28199565 0.04582101 -0.013067971
0000a0 92 a3 ba bd a6 04 15 3e 5f c5 25 be b1 4a 27 bf
       -0.0911323 0.14552554 -0.16188572 -0.65348345
0000b0 f1 1b 68 bd 4c 70 49 bf a7 38 0d bd ee 43 bf 3d
       -0.056667272 -0.78686976 -0.034477856 0.093391284
0000c0 81 e8 9b 3d 4a 34 25 3e c9 a6 95 be 0b e2 35 bf
       0.07612706 0.16133228 -0.2922881 -0.7104804
0000d0 40 4c 09 bf 06 f1 c0 3e b1 83 ec 3d 65 1b b6 be
       -0.53631973 0.37683886 0.11548556 -0.35567775
0000e0 f4 a7 91 3c b6 23 a3 3d 0a e1 c0 3e 94 c7 a8 be
       0.017780282 0.07965796 0.3767169 -0.32964766
0000f0 20 8d fb bb 0a a2 7b 3e 7b 5e 80 bb ee 29 0e bf
       -0.0076767355 0.24573532 -0.003917513 -0.5553273

weight f4 [64, 64]
000000 19 ce d6 be 4f ea 8a 3e be 00 f4 3d 51 56 f5 bd
       -0.41954115 0.27131888 0.11914204 -0.11979354
000010 ce 87 94 3e e9 7f ed bc e3 13 eb 3e 87 bc a8 be
       0.2900986 -0.028991656 0.4591361 -0.32956335
000020 c7 44 07 be 36 05 a5 be 70 a4 ac bd 4b 58 0d bf
       -0.1320983 -0.32230538 -0.084298015 -0.5521285
000030 7e 72 81 3d 21 39 8f 3c 83 52 14 3f 61 77 97 bd
       0.06320666 0.017483296 0.579384 -0.073958166
000040 c2 f7 af bd 8d 68 ac be 5f a6 8b be 87 ff da be
       -0.08592178 -0.33673516 -0.2727537 -0.42773077
000050 7d 41 23 be 88 a8 35 3c 4d 41 ef bd a5 a2 81 be
       -0.1594295 0.011087544 -0.11682377 -0.253194
000060 38 fe 5b be 60 14 83 be 08 a2 65 be 6c 80 8e be
       -0.21483696 -0.25601482 -0.22425091 -0.27832353
000070 c0 4d 67 bc c0 c0 30 3e ed dd 2b 3f d1 f2 2d be
       -0.014117658 0.17261028 0.67135507 -0.16987158
000080 45 d7 22 3e 27 fe 92 3e b5 cb a4 be db c9 b5 be
       0.15902431 0.28709528 -0.32186666 -0.35505566
000090 60 fa 54 bf 48 44 82 3e 66 89 91 bd 32 a3 4c 3f
       -0.8319454 0.2544272 -0.07106285 0.79936516
0000a0 ad ed 7e 3e 9b 45 14 bf 63 43 5a 3e 28 19 59 3e
       0.24895354 -0.5791871 0.21314768 0.21201003
0000b0 5b 6d 1f bd ce 07 cb be a3 55 58 3e 01 66 3f 3d
       -0.03892265 -0.39654392 0.21126418 0.046728138
0000c0 aa 69 68 3e 27 a1 70 3e 86 e3 01 bc 9a b7 45 be
       0.22696558 0.23498975 -0.007927781 -0.1930832
0000d0 71 cb 7b 3e d1 fb 83 3b 69 cf b9 3e 6e ce 91 3e
       0.24589325 0.0040278216 0.36291054 0.28477806
0000e0 70 36 01 3f 43 ff 76 be 1f 2f 92 bd f7 e6 24 3d
       0.5047369 -0.24120812 -0.07137894 0.040259328
0000f0 bf 7d fc bc 64 72 46 bd d6 1c 04 3e 17 4f ea 3e
       -0.03082168 -0.048448935 0.12901625 0.45763466
000100 ca d8 22 3d 74 db 25 be df ea 9a 3e 9b 19 0f be
       0.039757527 -0.16196996 0.30257317 -0.13974611
000110 15 c4 a7 bd 8d a4 98 3e 28 ab a1 be 79 5e d5 3e
       -0.081916966 0.29813042 -0.31575894 0.4167364
000120 93 d5 84 bd 25 3c 66 be 5f 94 ae 3e 02 93 ef 3c
       -0.064860485 -0.22483881 0.34097573 0.029244903
000130 76 b9 34 3d a0 fb 98 bd 03 1f 6d bc 18 e8 9d 3e
       0.04412218 -0.07469869 -0.014472726 0.30841136
000140 e4 7a cb be bb eb 40 be 58 6a 89 be 70 31 81 be
       -0.39742196 -0.18839924 -0.26838946 -0.2523303
000150 9e 05 56 bd 55 85 76 be 27 73 08 bf df 4f 40 be
       -0.05225145 -0.240743 -0.5330071 -0.18780468
000160 e0 77 0c be 4b 25 07 bf f5 db a3 bd 0e 73 47 3e
       -0.13717604 -0.5279128 -0.08000938 0.19477484
000170 df 06 09 bd 9b bc 4e 3e 7b b1 bd be e3 7a af be
       -0.03345382 0.20189135 -0.3704947 -0.34273443
000180 d0 a3 5e 3e 91 fc 73 3e fa 85 97 3e ca 2f c6 3d
       0.21742177 0.23826815 0.29594404 0.09677084
000190 b9 b2 83 bd 8d 50 95 be fb ac d7 3e 43 28 20 be
       -0.06430573 -0.29163018 0.4212416 -0.15640359
0001a0 9a 7f a2 be 4d 05 ec 3d 98 4c 36 3d a3 5f f6 bc
       -0.31737977 0.115244485 0.04450664 -0.0300749
0001b0 73 d3 e0 3d ef 9b 73 3e 0b d1 ae bd 25 9f 25 3e
       0.10977831 0.23789953 -0.085359655 0.1617399
0001c0 79 db 50 be 62 96 fe 3c 66 7c 8c 3d 08 a8 3f 3e
       -0.20396222 0.031077567 0.068596646 0.18716443
0001d0 86 e5 8c bd a4 07 bf be 6f 10 e3 3e 9d 5c 8c bd
       -0.068797156 -0.37310517 0.44348475 -0.06853602
0001e0 1f 47 0a 3e 59 cf 95 bd 1b 5f 01 3f 38 90 5d bd
       0.13503693 -0.07314939 0.50535744 -0.054092616
0001f0 74 9f 4f be 07 63 91 3e f5 15 aa bc 6a bc 4f bd
       -0.2027567 0.28395864 -0.020762423 -0.050716795
000200 72 63 53 3f 6c cc a7 be 03 1d 1a 3d 4d 97 24 be
       0.82573617 -0.3277315 0.037625324 -0.16073342
000210 0f 44 d2 3e c7 ac 94 be 64 0b f7 be 44 43 66 3e
       0.4106755 -0.2903807 -0.48250878 0.22486597
000220 c6 e7 cc bd 20 70 19 bf c5 04 60 3e 83 74 17 bf
       -0.10005145 -0.59936714 0.2187682 -0.5916216
000230 9a 55 98 bc 61 75 46 bf 3e da 19 3e ba 16 ac be
       -0.018595506 -0.77522856 0.15024659 -0.3361109
000240 af dd 10 3f f2 b1 74 be cf 13 9f 3e 20 eb 1b bf
       0.5658826 -0.23896006 0.310698 -0.6090565
000250 de d2 c7 be da 2c 85 3e e0 60 8b 3e e1 ed 78 bf
       -0.39028066 0.26010782 0.27222347 -0.97237974
000260 c6 c4 c1 be 51 9a 33 bf f5 4a 43 bb 6a cf 5d 3e
       -0.3784544 -0.70157343 -0.0029799317 0.21661153
000270 8e 36 73 be a0 8d 06 3e e0 4c f7 be fa a7 08 bf
       -0.2375128 0.13139963 -0.48300838 -0.5338131
000280 28 7c ac 3e ee 86 40 3d d1 62 65 bf 16 80 28 3f
       0.33688474 0.04700368 -0.89603907 0.65820444
000290 30 bf 1a 3f 2f 19 b9 3d 32 71 09 3e 76 a4 1b be
       0.6044798 0.090380065 0.13422087 -0.15199456
0002a0 9f 01 b0 3d c3 de 41 3e 5c a7 59 be d0 b2 7f be
       0.08594059 0.18932633 -0.21255249 -0.24970555
0002b0 9a 4b 0c bf 9a e6 52 bd 7c 5b a9 3e 61 86 d3 bd
       -0.5480286 -0.05148945 0.3307761 -0.10328365
0002c0 9f c3 32 3d b8 60 1b 3c a9 aa a9 3d ad f0 2b 3e
       0.04364359 0.009483509 0.08284504 0.1679103
0002d0 2e c2 07 3e 89 0c 27 3f 16 63 ae 3e a4 ba 29 bd
       0.13257667 0.652535 0.34059972 -0.04143776
0002e0 43 ed 9e bd df e2 73 be 71 f4 dd 3d b6 fe 8b be
       -0.07760098 -0.23817013 0.10837639 -0.27342767
0002f0 16 da bf 3e 24 e5 af 3e d6 96 9a bd ed 12 5c 3d
       0.37471074 0.34354508 -0.07548301 0.053728987
000300 47 ba cd 3d d9 ee 33 3f e3 f0 9b 3e 56 0f b8 3c
       0.10045295 0.7028633 0.3045722 0.02246825
000310 2c cf 87 3e 64 f4 aa 3e ea d9 56 3e 56 65 94 3e
       0.26525247 0.3338958 0.20981565 0.28983563
000320 dd d5 6b bd 42 33 df be 51 f0 15 bf 92 12 aa 3c
       -0.057577003 -0.43593794 -0.5856982 0.020760808
000330 24 e9 56 be c6 d3 25 3e f1 bd 82 be 3f e0 d8 bd
       -0.20987374 0.16194066 -0.2553554 -0.105896465
000340 c3 5b 3c 3e 5c f8 22 3d 75 df 8b be 9b 57 69 3e
       0.1839438 0.039787635 -0.27318922 0.22787325
000350 06 04 a4 be 5a 64 44 3d ba 33 96 3e fb 6e d7 3d
       -0.3203432 0.047947265 0.2933634 0.10519215
000360 c6 4b 46 be 8d 49 74 3e de be 45 be 47 aa ee 3e
       -0.19364843 0.23856182 -0.19311091 0.46614286
000370 a8 39 cb bd 29 f4 73 3e 29 ae dc bd 1c 59 8f 3d
       -0.099231064 0.23823608 -0.10775406 0.06999418
000380 45 24 85 3e 90 e4 36 3e 32 4b 94 be a9 0b ce be
       0.26004234 0.17860627 -0.2896362 -0.4024327
000390 77 33 a6 be b7 52 be be 37 e8 52 3e d5 6e 7e be
       -0.3246114 -0.3717248 0.20596395 -0.24846967
0003a0 8e 06 f8 be 49 4d 48 3e 1b f9 f6 be 22 c4 17 bd
       -0.484425 0.19560732 -0.48236927 -0.03705228
0003b0 d9 15 93 3e 6f 6d c8 bf d7 1c 2b bc 1f c0 b8 be
       0.28727606 -1.5658396 -0.010443888 -0.36084077
0003c0 c9 87 22 3f a1 31 23 3f 25 7b 68 bf 0c 17 6b bd
       0.6348844 0.637476 -0.90812904 -0.057395026
0003d0 e4 ca ff 3e 23 58 3a 3d 80 a8 ee bc 89 2d b2 bd
       0.4995948 0.04549421 -0.029133081 -0.087000914
0003e0 9b 25 4d be 80 9f 34 bf 49 41 b4 bc b3 28 dc bd
       -0.20033877 -0.7055588 -0.022003787 -0.1074995
0003f0 ef ed bd be f0 21 13 3f 53 37 6c 3e 15 7d e3 be
       -0.3709559 0.5747366 0.2306798 -0.44431368

bias f4 [64]
000000 f4 34 59 3e 67 af 27 3f a6 cf ca 3d 9a 75 eb 3e
       0.21211606 0.6550202 0.09902887 0.4598816
000010 61 fc 0d 3f 96 07 4f 3e f3 9f 7b 3f 5b 01 3e be
       0.55463225 0.20217738 0.9829094 -0.18555205
000020 83 6a 16 be b2 2d f7 3c 8d e3 43 3e df bd ca 3e
       -0.14689068 0.030173156 0.19129772 0.39597985
000030 8f e8 15 bf 67 0e 2f 3e bc cd 66 3e 0e 15 36 bd
       -0.5855798 0.17095338 0.22539419 -0.044453673
000040 9a 3d 8d be 0e b3 ee 3d 91 a8 f4 3e 48 b1 73 3e
       -0.2758606 0.11655246 0.47784856 0.23798096
000050 49 cf 40 bd 8e b1 88 be 60 65 0b 3c 28 ee fc be
       -0.047072683 -0.26697963 0.008508056 -0.4940045
000060 60 f0 de be e0 01 8a bd 0a 9b 7f be d1 1e 6f bd
       -0.43542767 -0.06738639 -0.24961486 -0.058379
000070 7d f8 cf 3e 25 44 da bd b6 f7 0b 3e 3c b1 fa bd
       0.4061927 -0.10657529 0.13668713 -0.12240836
000080 0f a8 c1 bd 14 e6 13 bf 03 ef d0 3e ab 0a 03 3f
       -0.09455883 -0.57772946 0.4080735 0.51188153
000090 b3 08 0b 3f 60 e5 a6 bd d3 83 11 3f d0 26 dc 3e
       0.5431015 -0.081492186 0.5684177 0.42998362
0000a0 97 6a 1b be 41 6b 89 3e 45 6f e1 3d 1c b9 b9 be
       -0.1517738 0.2683964 0.11007551 -0.3627404
0000b0 0d b2 0f 3f 1b e8 73 3e 47 ea 85 bc ba 67 33 be
       0.5613106 0.2381901 -0.016347064 -0.17520037
0000c0 1f a7 ce 3d d3 c6 9c 3e 71 68 ce 3d 29 15 4d be
       0.100904696 0.3062044 0.10078514 -0.20027603
0000d0 9f f9 ab 3e e8 9f 57 be ad 4e c1 be 7a 8c 1c 3f
       0.33588883 -0.21057093 -0.37755337 0.6115185
0000e0 af 78 9c 3d fb 27 b1 bd 7c 01 29 bf 2b 98 d5 3d
       0.07640206 -0.08650204 -0.6601789 0.10429414
0000f0 68 0c 76 3d 63 d0 10 bc b9 42 ca 3e 90 50 67 3e
       0.060070425 -0.008838746 0.3950403 0.22589326

weight f4 [64, 64]
000000 4b 85 27 3e c3 f2 00 3f 81 c7 cf 3e 44 e6 c7 bd
       0.16359441 0.50370425 0.40581897 -0.097607166
000010 d2 bd 18 3e 34 64 ea bc b7 98 83 3d c1 f7 b6 3e
       0.1491616 -0.028612234 0.064256124 0.35735896
000020 d7 08 82 3d 5a ce 82 3e d4 89 88 be 56 23 b4 bd
       0.06349342 0.2554806 -0.26667655 -0.08795802
000030 e0 33 20 bf 62 06 93 be e3 87 8d bf fb ea b0 3e
       -0.62579155 -0.28715807 -1.1057094 0.34554276
000040 93 f9 e5 be dc 5d 72 3e 3f ca 0c 3e ef c2 b6 3e
       -0.44916973 0.23668617 0.13749026 0.35695598
000050 02 6e 06 bf 4c b4 67 3e 91 57 73 3e 67 25 0d 3d
       -0.5251161 0.22627372 0.23763873 0.034459498
000060 0e e7 25 bf b2 d4 f0 be b5 cc 6e 3d 03 5c 81 3e
       -0.64805686 -0.47037274 0.058300693 0.25265512
000070 ad ee b4 3e 0c 9e aa 3e d8 3f 47 3d 30 ab 02 3f
       0.35338345 0.33323705 0.04864487 0.5104246
000080 19 80 80 3f 44 f7 a7 be 3d c3 08 bf bb a1 37 bf
       1.0039092 -0.32805836 -0.5342291 -0.71731156
000090 2d a6 90 bd 19 d2 8a bf 17 a0 24 3d 46 52 10 be
       -0.070629455 -1.0845367 0.040191736 -0.14093885
0000a0 cb f2 08 be ee f4 a6 be c2 42 a0 bd ce e4 8a 3e
       -0.13373868 -0.32608742 -0.07825233 0.2712769
0000b0 38 85 cf be 90 cc 75 bc 12 8f 8f 3d d9 c3 40 3e
       -0.40531325 -0.015002385 0.0700971 0.1882471
0000c0 aa 48 9e bd 88 d7 b7 3c 0c 74 50 3d f0 5b bf be
       -0.07728703 0.02244164 0.05089192 -0.3737483
0000d0 d5 a0 77 bf 90 41 c4 bf c2 fe 1d be 7b 60 5d be
       -0.96729785 -1.5332508 -0.15429214 -0.21618836
0000e0 1f 44 c8 3e 3e 64 32 bf b2 d8 64 3f bb 1d 92 3e
       0.39114472 -0.6968421 0.8939315 0.28538308
0000f0 33 a8 4e 3e fa 98 4b 3e 5d 0c 84 3e f7 d0 ab 3e
       0.2018135 0.19882575 0.25790682 0.33557865
000100 22 ef f3 bd 25 30 1d bd 69 29 aa 3e e5 8c 36 3e
       -0.11910845 -0.038375992 0.33234718 0.17827184
000110 da cc 50 be 45 34 d0 3d 1d 47 fa 3e 0c a0 60 bc
       -0.20390645 0.101662196 0.4888238 -0.013710033
000120 ba 48 12 bd be 97 1b be ec e7 93 3e 34 af 07 3e
       -0.03571389 -0.15194604 0.2888788 0.13250428
000130 31 89 6c bf 5e ba 18 3e 5b b7 15 bd e3 05 a7 3e
       -0.9239684 0.14914843 -0.036551815 0.3262168
000140 aa b8 72 3c 51 6d 51 3e b1 db 01 be 18 bb c3 be
       0.014814535 0.20451857 -0.12681462 -0.3822868
000150 82 2a ef 3d 0a 94 29 3d 97 29 10 3d ac 89 f7 3e
       0.116780296 0.041400947 0.035195913 0.48347223
000160 32 f1 55 bf 23 17 87 bd 2d 29 9a be 29 fd 79 3e
       -0.8357116 -0.0659621 -0.3010954 0.24412979
000170 f5 22 b0 3e dc 8a 8e be 38 c1 d5 bd 78 07 78 3f
       0.3440167 -0.27840316 -0.10437244 0.96886396
000180 3a 31 70 3e 20 69 6e 3d 45 f1 8d be 10 c4 b1 be
       0.23456278 0.058205724 -0.27723137 -0.34719896
000190 12 7b 57 3e a0 58 b3 3e 4a 06 fb 3c 88 17 26 3d
       0.21043041 0.35028553 0.030642647 0.040549785
0001a0 bc c4 c0 bd 69 d2 dc bd 45 f7 f2 bc 94 b5 33 be
       -0.09412524 -0.1078232 -0.029658923 -0.17549735
0001b0 d8 50 0d 3f e6 97 66 3d a9 a5 54 bf f4 43 2d 3e
       0.5520148 0.056297205 -0.8306528 0.16920453
0001c0 40 34 b2 bc 74 5c c6 3e f0 c2 94 3e 05 fc 10 3e
       -0.02175343 0.3874241 0.29054976 0.14158638
0001d0 3e c3 a6 be 9c ab 21 c0 b2 dc 16 3d 75 6f 9d 3d
       -0.32570833 -2.5260992 0.036831565 0.07687274
0001e0 df 4e 6e be 44 55 5e bd b9 2b b4 3e a6 49 ad be
       -0.23272274 -0.054280534 0.35189608 -0.33845252
0001f0 5d 48 ce be 88 3b c8 bd 8c ab 20 bd 36 7b 7b bd
       -0.40289584 -0.0977698 -0.0392261 -0.0613968
000200 ae 1c d3 3d ce f0 40 be 1f 7a fe bb b7 e3 5e be
       0.103082046 -0.1884186 -0.007766023 -0.21766554
000210 35 20 77 3e dc 7e 31 be 7a 40 d2 3e d5 41 a3 be
       0.2413338 -0.1733355 0.41064817 -0.31886163
000220 40 11 bd bd 67 b2 31 be a4 20 55 be ae eb 09 be
       -0.09231806 -0.17353211 -0.20813233 -0.13468811
000230 89 0a 62 be 12 0a f1 bd d5 e4 10 3e 2d 8c a7 3e
       -0.22074331 -0.11769499 0.14149792 0.32724133
000240 ae 9f 81 3d bd bf 0a bd 2a 44 aa be e9 51 ea be
       0.063292846 -0.033874262 -0.3325513 -0.45765617
000250 af f8 7f 3e ed a8 1e 3f 69 54 9b 3e b6 50 2c be
       0.24997209 0.6197651 0.30337837 -0.16827664
000260 d5 86 0d be af eb 55 3d 27 2c 0c 3d a1 1f 40 bd
       -0.13820966 0.05222672 0.034221794 -0.046905164
000270 be 53 41 3e 80 c7 6b bc 65 30 41 be cf 19 18 3e
       0.18879601 -0.014390826 -0.18866117 0.14853595
000280 b4 b0 45 3f 10 f9 82 3e 2f 47 38 bd ea 96 4e 3d
       0.7722275 0.25580645 -0.04498976 0.05043689
000290 1e 6d 7a bd ab db 09 bf eb 2d 93 3d 00 83 30 3e
       -0.06113922 -0.5385081 0.071864925 0.17237473
0002a0 c0 47 20 bd 72 ff c7 be b2 77 28 be cd 26 09 be
       -0.039130926 -0.39062077 -0.1645191 -0.13393708
0002b0 43 31 32 be 26 7f 60 be d2 32 8d be c5 c9 22 3e
       -0.17401604 -0.21923503 -0.27577835 0.15897281
0002c0 46 8c ad be c3 51 a6 3e d3 11 23 3d 72 32 f5 3d
       -0.33896083 0.32484254 0.03981192 0.11972512
0002d0 0b f9 eb 3e 89 c3 01 3e b3 1f 80 bf 10 4f 9f 3d
       0.46088442 0.12672247 -1.0009674 0.07778752
0002e0 13 21 49 be 39 aa 2f 3f 43 dd 6c 3e fb 2b 0e 3f
       -0.19641523 0.68619114 0.2313128 0.5553586
0002f0 cc 51 82 be f9 83 4c be 38 c7 10 3f d0 bf bd 3d
       -0.2545303 -0.19972219 0.56553984 0.09265101
000300 a9 b0 81 bf 77 1f 0d be 13 62 7a be e5 a7 58 3e
       -1.0132037 -0.13781534 -0.24451475 0.21157797
000310 26 21 27 bf cb 17 26 3e e6 d6 49 3e 95 1e a4 3e
       -0.65284956 0.16220014 0.19710883 0.32054582
000320 f9 33 8c 3d d6 16 bb 3e ce 5c 80 3e a0 99 05 bf
       0.068458505 0.3654086 0.25070804 -0.5218754
000330 ca 2f 52 3e fe ae 62 be f0 94 4c bd b3 c8 0e bc
       0.20526043 -0.22137067 -0.049946725 -0.008714843
000340 49 cc da be 13 8e ce 3e ff d4 00 be 64 ae 91 be
       -0.42733982 0.4034277 -0.12581252 -0.28453362
000350 d8 8b 33 3d ef 04 47 bd b2 94 97 bd 59 33 42 3d
       0.043834537 -0.04858869 -0.07401408 0.04741225
000360 e3 ad 8e be 6a eb 81 bf af 2c d5 bd 21 2c 48 bd
       -0.2786704 -1.0149968 -0.10408913 -0.04887021
000370 69 38 fd 3e a4 74 4b bf f7 c3 80 bd 2e ab 0f bf
       0.494571 -0.79474854 -0.06287377 -0.56120574
000380 c2 6c 4f c0 09 a3 26 be 54 98 24 be f1 68 a2 3e
       -3.241013 -0.1627313 -0.16073734 0.3172069
000390 26 b5 93 3e a0 55 01 3f 89 b2 bf be 3b e4 e8 3c
       0.28849143 0.5052128 -0.374409 0.028429141
0003a0 e7 d7 93 bd 9e 17 4a be 0e 48 ed bd fa da 48 be
       -0.072189145 -0.19735572 -0.11586009 -0.19614783
0003b0 2c 3b 9f 3e ed 8b 4c 3f 48 0e 1b 3e 12 db 3e 3e
       0.31099832 0.7990101 0.15142167 0.18638256
0003c0 7a 9f c4 3e 27 8b bd 3e 6f 3c 76 be 8e 44 18 be
       0.3840292 0.37020227 -0.24046491 -0.14869902
0003d0 f4 d3 5e 3e 71 81 a2 3e 8d 99 75 bd 1b 5e df 3e
       0.21760541 0.3173938 -0.05996089 0.43626484
0003e0 d1 9c 03 bf af 82 71 3e 7b 63 84 bf 03 60 7e be
       -0.5141116 0.23585008 -1.0342859 -0.24841313
0003f0 d0 c0 ec bd d9 01 35 3e c1 16 e8 bd 35 9c 16 3e
       -0.115602136 0.17676486 -0.11332465 0.14708026

bias f4 [64]
000000 30 f9 5a 3e 1a 60 3a 3e 73 82 ce bd 34 d4 18 3e
       0.2138412 0.18200722 -0.10083475 0.14924699
000010 85 09 db 3e a7 82 c8 3e 3a d3 e8 3e d7 92 25 3b
       0.427807 0.3916218 0.45473653 0.0025264525
000020 82 80 11 3f 23 e6 99 3e b9 45 f8 3e bc f4 d4 3e
       0.5683671 0.30058393 0.48490694 0.41592968
000030 f4 29 9f 3e 9e d0 47 bf 3d 74 49 3e b6 80 08 3e
       0.31086695 -0.780527 0.19673248 0.1333035
000040 de 8f bd be c8 67 a2 be a0 fe 1c 3f 1c 7b 25 3f
       -0.37023824 -0.31719804 0.61326027 0.64640975
000050 54 5e cf 3e e4 22 01 3f ca 65 a9 3e 12 22 8e 3e
       0.40501654 0.50443864 0.3308547 0.2776037
000060 ef 95 87 3e 86 c2 20 3f b8 26 72 3d d4 6d e6 bb
       0.26481578 0.6279682 0.059118956 -0.0070321355
000070 6f 3a 32 bd 62 ff dd bd 99 7e 49 3e 50 15 f2 3d
       -0.043512758 -0.10839726 0.196772 0.11820471
000080 a0 3e ab 3e 85 be f3 3e 43 72 af be 91 f5 89 3e
       0.33446217 0.47606292 -0.34266862 0.26945165
000090 f1 6d 48 be ae be 1f 3e b2 ae dd 3d 32 47 a0 3d
       -0.1957319 0.15600082 0.10824336 0.078260794
0000a0 ea 31 6b 3f fb 55 d4 3e 63 7e b7 3e e6 58 9b bd
       0.9187304 0.41471848 0.35838613 -0.075853154
0000b0 8b 44 82 3e a2 87 ab 3e 1e 64 a7 3d 4d 6b 03 3f
       0.2544292 0.33501917 0.08173393 0.51335603
0000c0 2d ac d0 3e eb 85 d4 3e be 85 01 3f be 26 e5 bc
       0.4075636 0.4150842 0.505947 -0.027972575
0000d0 26 b6 dd 3c e5 a7 00 3f 95 9a a5 3d 4a cc 8e 3e
       0.027064394 0.50256187 0.08086125 0.27890235
0000e0 b8 86 03 be 64 3c 0b 3e 14 69 13 3f 72 0b 31 bd
       -0.1284436 0.13597256 0.5758221 -0.043223806
0000f0 20 79 fd bd e3 06 dd bd aa f4 60 3e 22 65 31 3f
       -0.123766184 -0.10792329 0.21968332 0.6929494

weight f4 [3, 64]
000000 94 ed 83 3d 02 b5 07 bc 91 ab 4b bd cb bc d7 bb
       0.06441799 -0.008282902 -0.049724165 -0.006583785
000010 a8 8f ee 3d 41 5b d6 3d 11 da d7 bd 5e d6 cd bc
       0.11648494 0.10466624 -0.1053964 -0.025126632
000020 93 23 b9 3d b7 a2 b3 bd c8 98 ca 3d 95 f1 8d 3d
       0.09039988 -0.0877127 0.09892422 0.06930844
000030 11 03 c3 3d 10 53 a5 be a9 56 4f 3e 89 40 5e bd
       0.09522069 -0.32289934 0.20247902 -0.054260764
000040 12 42 9d be 4d 4d 49 be c8 d8 22 bd 7a d5 c1 3d
       -0.3071447 -0.19658394 -0.03975752 0.094645455
000050 ea 19 06 be 1e 10 92 bd da cf 5c 3d 22 c3 b4 3c
       -0.13095823 -0.0713198 0.05390916 0.022065703
000060 11 83 7d 3d 4a 7e 94 bd 70 b2 dd 3d cc 8f 8a bd
       0.061892573 -0.0725065 0.1082505 -0.06765708
000070 d1 e3 23 bd d1 cc e2 bd 73 48 c8 bd e1 f8 c1 3d
       -0.040012185 -0.11074222 -0.097794436 0.09471298
000080 d2 0b 9f bd 94 a5 10 3e 78 c4 f5 3d 0a f7 c0 3c
       -0.077659264 0.14125663 0.12000364 0.023555297
000090 09 57 e9 bd a7 27 f0 bd f5 ef 4f bd 04 28 28 3e
       -0.11393554 -0.11726313 -0.05076595 0.16421515
0000a0 92 16 22 3d bc f1 02 be 99 a5 08 3b e6 c9 c5 bd
       0.039572306 -0.12787527 0.0020850657 -0.0965765
0000b0 78 50 fc bd ef 49 e0 3d 40 f2 14 bc d0 56 42 bd
       -0.12320036 0.10951602 -0.00909096 -0.047446072
0000c0 23 de 0f 3e d6 1e 73 3d ad 22 32 3d 5b d2 d3 bd
       0.14049582 0.05935558 0.0434901 -0.103428565
0000d0 d5 48 3f bd 1f c8 ae 3d 34 51 14 bd e4 a2 a5 3d
       -0.046700317 0.08534264 -0.036210254 0.080877095
0000e0 16 91 0b 3e 1d 64 2b 3c 14 00 e0 3d 00 60 11 3d
       0.13629565 0.010460881 0.10937515 0.035491943
0000f0 e7 69 8c bd 3b 32 cd 3c 67 07 ee bd 7f f1 8f bc
       -0.06856137 0.025048366 -0.11622506 -0.017571209
000100 8b da 42 3e 9c b6 0f 3e 1a bb e0 bc 69 c8 5f 3e
       0.1902868 0.14034504 -0.027432967 0.21853794
000110 bf 59 ce bd b1 87 be 3d 47 eb 1b bd de 8b 11 3e
       -0.100757115 0.09303225 -0.038066175 0.14213511
000120 a1 35 8b 3c 73 b5 31 3d 17 28 ba bc 62 20 10 be
       0.016993346 0.043385934 -0.022724194 -0.14074853
000130 fa e8 37 bb 27 ad 17 be 4b 2e 81 bc f1 22 5f bd
       -0.002806245 -0.14812146 -0.015769145 -0.054476682
000140 f1 3f 53 3d 0a 05 23 bd 2c 24 cf bd 03 a6 df bc
       0.05157465 -0.039799727 -0.10114321 -0.02730084
000150 41 98 dd 3d 73 78 54 3e b8 a9 14 3b 54 f5 3b 3d
       0.10820056 0.20749073 0.0022684168 0.04588826
000160 6d 87 92 bd 8e da 96 3c 45 08 ca 3d 5a f9 b0 bb
       -0.07154737 0.018414762 0.098648585 -0.005400819
000170 4c 50 cb bd 4f 37 78 3d af e1 31 3c 9f ee 80 3d
       -0.09927425 0.06059962 0.01085703 0.06295513
000180 30 b4 94 3c e3 48 c8 be 15 38 8e be bf 4d 83 3c
       0.018152326 -0.39118108 -0.27777162 0.016028283
000190 bf 7b 0e 3d da ad ff 3c e5 b4 4a 3d d4 1c c6 bc
       0.034785982 0.031210829 0.04948892 -0.024183668
0001a0 fb 13 45 be 7e 56 27 3e 88 bf e5 bd 37 93 2c bd
       -0.19245903 0.16341588 -0.11218172 -0.042132583
0001b0 70 92 4b bd 9a a2 b5 bd 24 ce b8 3d d3 5a a4 bd
       -0.0497002 -0.088689044 0.09023693 -0.08025136
0001c0 df 49 25 bd a4 db ac bb 5d c1 fe bd 8e a2 a1 3b
       -0.040353652 -0.0052752066 -0.12439225 0.004932708
0001d0 43 86 5d bd a1 b1 8d 3c cf 08 99 3d d5 f0 19 bd
       -0.05408312 0.017296614 0.07472383 -0.03758319
0001e0 41 8a ee 3c 33 5a f6 bd d7 6d 26 be 3e 1a 32 bd
       0.029118659 -0.12028923 -0.16252838 -0.043482058
0001f0 de 65 51 3d a8 37 69 3d fa 04 f0 bd 41 6c e1 3d
       0.05112254 0.056937844 -0.11719699 0.11006976
000200 d0 a4 9d 3d b1 0c fb bc 28 c7 bc 3d ca 53 83 bc
       0.07697451 -0.0306457 0.092176735 -0.016031165
000210 ce 60 7b bc 18 80 86 bc 40 eb f8 bc a9 8e 30 bc
       -0.015342904 -0.016418502 -0.030385613 -0.0107762
000220 7e b2 79 bd 05 16 66 3d 92 2a 42 bd 73 97 69 3d
       -0.06096124 0.056173343 -0.04740388 0.0570292
000230 81 4e a3 3d f8 21 ac 3c 8e 0d 6c bd 4f 14 30 bc
       0.07973958 0.021012291 -0.057630114 -0.010747029
000240 97 4d 29 3d 89 1c 56 bd ba 40 80 3d 4a e8 81 bd
       0.04133376 -0.052273307 0.062623456 -0.06343134
000250 36 ef a3 bc 56 ad 82 bd df 96 01 3e d5 50 3e 3e
       -0.020011526 -0.063807175 0.12655209 0.18585522
000260 27 e6 8a 3d da da 20 be d8 b1 c4 bc 21 a6 9e be
       0.06782179 -0.15708485 -0.024010584 -0.3098612
000270 32 fe b6 bd e6 ab f1 3d 7e cb 85 3d a2 5d 89 3d
       -0.08935203 0.11800365 0.06532954 0.06707312
000280 87 df 99 bd e4 be 82 3d de 0f 14 3d e1 6a e6 bd
       -0.075133376 0.06384066 0.036147945 -0.11250854
000290 89 55 74 3d 07 ed 30 3d d2 2e b5 3d ed ce 5c 3c
       0.059651885 0.043194797 0.08846821 0.013477069
0002a0 9f 99 4c 3b ff 4a 93 bd 68 0e 73 3d 74 35 9e bd
       0.0031219495 -0.07192039 0.05933991 -0.07725039
0002b0 8e f5 16 3c 48 85 af 3d e0 f5 28 3d 37 12 bb bd
       0.009213818 0.08570343 0.04125011 -0.091343336
0002c0 70 96 7b 3d 4a 8a b1 bd 67 1d 6a bd 79 9e 88 3d
       0.061422765 -0.08668955 -0.057156947 0.06670851
0002d0 1d 11 9a 3d 00 4c b7 bd ca a7 d1 3d 77 e9 d0 3d
       0.07522795 -0.08950043 0.10237081 0.1020078
0002e0 83 35 79 bd fe 2e 98 3c a1 1e db bb 09 b6 09 be
       -0.06084205 0.018577095 -0.006687001 -0.13448347
0002f0 13 d4 0e 3d 4f b0 87 3d 4f 44 f2 3c 71 c3 c8 bd
       0.03487022 0.06625425 0.029573588 -0.098029025

bias f4 [3]
000000 67 52 83 bd 4a 83 12 3b e7 30 d1 3c
       -0.064122014 0.0022356086 0.025536014
