train_sensor/model_params/force_torque_model.pth (torch, 757991 bytes, 8 tensors)

0.weight f4 [512, 45]
000000 48 39 56 bf b1 02 7e 3d dd 20 ee 3d a2 16 39 3f
       -0.83681154 0.062014285 0.11627362 0.7230016
000010 d3 00 01 3f 22 08 e1 be 64 76 0c 3f 65 ce cd be
       0.5039188 -0.43951517 0.5486815 -0.4019653
000020 f3 a6 3e be 5f f0 62 3d 93 78 16 be 7a d4 74 bd
       -0.18618374 0.055405017 -0.14694433 -0.059772946
000030 93 b5 81 3e 24 88 7e 3c b2 b2 c1 3d be 35 26 3e
       0.25333843 0.015535388 0.094579116 0.16231439
000040 92 22 0d be ec 50 a0 be f8 47 b3 3e 98 fd cf be
       -0.13782719 -0.31311738 0.35015845 -0.40623164
000050 98 4c ba be b3 6a 4f be df 59 80 3e 2e 23 8d be
       -0.3638656 -0.20255546 0.25068566 -0.27565902
000060 42 06 a9 be 61 14 1f 3e 59 20 10 be 8c a8 cd 3e
       -0.33012587 0.15535118 -0.1407484 0.40167654
000070 26 93 8a be 0c 02 cd be 4a f6 ec be 62 04 be 3b
       -0.2706539 -0.40040624 -0.46281654 0.0057988623
000080 5c 93 20 3e 92 a5 29 bf 23 ba ef 3e 13 fd 89 bd
       0.15681213 -0.66268265 0.468217 -0.06737723
000090 5f 39 8b 3e 7b b2 ae 3e f4 5b 9b 3e ae f6 91 bf
       0.27192208 0.34120545 0.30343592 -1.1403406
0000a0 e5 5e c5 3e ca 8a a2 3e a5 49 52 bf ea 48 09 3e
       0.3854896 0.31746513 -0.8214362 0.13406721
0000b0 ba 62 90 3e 49 eb 54 3d 7b 5c 3b 3e b2 ce 63 bf
       0.28200322 0.051982198 0.18296997 -0.88987267
0000c0 7f f4 42 be 03 b9 b1 bd 89 4e d9 be f0 2e c8 3d
       -0.1903858 -0.08677866 -0.4244273 0.097745776
0000d0 cc 7d c1 be b5 83 1a bf 2f 10 45 3e 86 48 5f 3e
       -0.37791288 -0.6035722 0.19244455 0.21805009
0000e0 83 62 0a bf 1d 48 e3 bd ff e7 67 bd b3 8d a6 be
       -0.54056567 -0.11097739 -0.056617733 -0.32529983
0000f0 aa 19 31 3e 33 d4 a2 be 8b 2f ac be 40 87 31 bd
       0.17294946 -0.3180252 -0.33630022 -0.043341875
000100 40 c6 84 3e 59 b0 a2 be 69 1a 41 be 7b 51 25 be
       0.25932503 -0.31775168 -0.18857731 -0.16144364
000110 7c 23 1e be ba 5a 1c 3d 8e e9 6d bd eb 43 d2 bd
       -0.15443224 0.03817246 -0.058084063 -0.102668606
000120 2b ce be bd aa 40 4a 3e 56 17 a7 3b 25 dc df bd
       -0.09316667 0.1975123 0.0050992174 -0.10930661
000130 1f 14 5a be 60 0a 47 3e a2 53 60 3e 77 6a 77 3c
       -0.21296738 0.19437551 0.21906903 0.015101067
000140 bf 64 53 bd 2c fd 86 bd 85 a7 8b 3e 19 90 25 3f
       -0.05160975 -0.065912575 0.27276245 0.64673
000150 af a3 3d 3d 34 29 e0 be 0e a6 66 3f ef 1e 8a be
       0.04629868 -0.43781435 0.9009713 -0.26976725
000160 74 48 e2 be 02 60 a4 3f bd 20 3e be 19 af e4 bd
       -0.44195902 1.2841799 -0.18567176 -0.1116621
000170 72 06 3e 3e 09 43 60 3d 26 dd f9 bd 23 de 51 be
       0.18557146 0.05475143 -0.12200384 -0.20494895
000180 a9 81 db be a4 10 fa bd cc 50 2a 3d f9 2e 11 be
       -0.4287236 -0.12210205 0.04158096 -0.14178075
000190 b3 ec eb 3b 5c 60 20 bd a6 49 fc 3d 56 7f 73 be
       0.0071998476 -0.039154395 0.12318735 -0.23779044
0001a0 65 d3 83 be ea 55 ba be 7d 2f 65 3d 27 d9 a3 3c
       -0.2574722 -0.36393672 0.05595349 0.020001007
0001b0 aa f2 66 3d 4e d1 6b bd 54 f9 32 bd 9e bc 0d be
       0.056383766 -0.057572655 -0.04369481 -0.13841483
0001c0 40 bc 93 bd f4 ba 19 bd 70 48 98 bd b2 9c 1a 3e
       -0.0721364 -0.037531808 -0.07435691 0.15098837
0001d0 34 42 52 3d 6e 11 16 3e 04 9f bc 3c af ef 83 be
       0.051332667 0.14655086 0.023025043 -0.25768802
0001e0 63 06 87 be de e2 77 3e 84 35 e8 bd b0 8a 4f 3d
       -0.2637206 0.24207637 -0.11338332 0.050669372
0001f0 80 56 b5 3d 89 74 8c 3e 9a a8 22 3e f4 49 45 3e
       0.08854389 0.2743266 0.15884629 0.19266492
000200 6d 4b 87 be de 1e b4 be 18 00 5d 3d 3e 0d 36 3e
       -0.26424733 -0.351798 0.053955168 0.17778489
000210 c5 e6 d5 3e 80 05 4a 3f 97 66 8f bd 67 4f 6f bd
       0.41777626 0.7891464 -0.07001989 -0.058425333
000220 bb 3f a8 be d1 fb 76 3f 67 8d c3 be 85 61 39 be
       -0.32861122 0.9647799 -0.3819382 -0.18103607
000230 11 2b ae be 65 48 56 bf 2f 2b 9b bd 5f 8c 0e bf
       -0.34017232 -0.83704215 -0.07576596 -0.5568294
000240 60 b5 b2 3d c2 3e df be 9c 8d 3a 3f 1e ba e8 be
       0.08726001 -0.43602568 0.7287233 -0.45454496
000250 2f 8c f5 3b 64 4f 24 be e4 b1 ba bd 50 7b 69 bc
       0.007493518 -0.1604591 -0.09115961 -0.014250591
000260 3d 56 c7 be 5a ce 99 3d 16 8b 95 be 02 27 0a 3f
       -0.38932982 0.075100616 -0.29207677 0.5396577
000270 24 01 ba be 8e b7 9e be 10 7c d1 3d 9a c8 dd 3d
       -0.36328995 -0.30999416 0.10228741 0.10829277
000280 bc 36 79 3e b1 e5 35 be 50 60 dc bb 4f 18 7e be
       0.24337286 -0.17763402 -0.0067253485 -0.2481396
000290 f5 88 52 be a8 46 43 bd b1 b3 9f bc 72 13 8d bd
       -0.20560057 -0.047674805 -0.019494863 -0.068884745
0002a0 b4 5a c4 3e 8a 0a 83 3e bb 37 c0 3d 1a 41 9f 3e
       0.3835045 0.25593978 0.0938563 0.31104356
0002b0 d8 bc f5 be 27 a6 49 bf 73 e8 9b 3e 98 f4 95 3e
       -0.4799564 -0.78769153 0.30450782 0.29288173
0002c0 54 f8 1b bf 24 e0 e9 3e dc f5 99 3c c7 d7 05 3f
       -0.60925794 0.45678818 0.018793993 0.52282375
0002d0 3f a5 9c be 88 7e 5d 3e 45 c3 50 be c8 89 a4 be
       -0.30594823 0.21630299 -0.2038699 -0.3213637
0002e0 16 41 82 bd b4 32 7d 3e 92 99 76 3e 54 93 02 be
       -0.063600704 0.24726373 0.2408202 -0.12751514
0002f0 9f 55 80 3e 64 79 73 be c7 9e c9 3e bc 90 e3 bd
       0.25065324 -0.23776776 0.3937895 -0.1111159
000300 2f 0e 7e be 45 46 1e bd a8 38 23 3f 1f 99 2f 3e
       -0.24810098 -0.038641233 0.63758326 0.17148255
000310 84 21 ce 3d b4 f0 25 3f c4 5d cd bd 09 65 c8 3e
       0.10064986 0.6482041 -0.1002765 0.39139584
000320 27 5d 14 3e 88 0b 63 be 67 5a 29 bb 3b c3 e4 3e
       0.1448866 -0.22172368 -0.0025841238 0.446802
000330 5d f9 87 3e b7 a5 62 3d 54 90 4a 3f 03 30 8f 3d
       0.26557437 0.05533382 0.7912648 0.069915794
000340 f6 db d1 3e 1c 13 84 bd 25 c2 0c be 55 14 6f be
       0.4098813 -0.06448957 -0.13745935 -0.233476
000350 9e 70 de 3e a8 db 85 3e 52 0a 6d be 3e b1 13 3f
       0.43445295 0.26144147 -0.23148468 0.57692325
000360 b4 a3 5f be aa c8 75 3e 1b 54 ee be da ce 9e 3e
       -0.21839792 0.24002329 -0.46548542 0.3101719
000370 40 0b ed be 43 f2 2e 3e 57 1a 0b bf 5a 42 39 bf
       -0.46297646 0.17084603 -0.54337066 -0.7236687
000380 04 2f 35 3f 9a b4 54 3e f1 97 1e bf e9 66 fa 3e
       0.70774865 0.20772019 -0.61950594 0.4890664
000390 e2 6a cf 3e dd 68 b6 bd 24 a6 8d be 90 a8 20 bf
       0.40511233 -0.0890672 -0.27665818 -0.62757206
0003a0 26 b8 8e be dc 4c 1d 3f 28 98 dc bc 45 d0 b7 bd
       -0.2787487 0.61445403 -0.026928023 -0.08975271
0003b0 61 fd 01 3f 6c 73 37 3e f1 0a ca bd 5d 74 f7 be
       0.5077725 0.17915124 -0.09865368 -0.48330966
0003c0 ca 04 27 be 6b e7 cc 3d bb c5 29 3e 20 9c 42 be
       -0.1631042 0.10005077 0.16579334 -0.1900487
0003d0 db c5 a4 3e a2 1f 1c 3f ea dc c4 be 76 fd 51 bd
       0.32182202 0.6098577 -0.38449794 -0.05126711
0003e0 de ec bb be ee 91 b9 3e a3 1a ca 3e 7f ed ec be
       -0.36704153 0.36244148 0.39473447 -0.46274945
0003f0 2c fd 95 be 33 d8 d3 3d ff 88 95 3e 8a d8 eb bd
       -0.29294717 0.10343971 0.29206082 -0.11515911

0.bias f4 [512]
000000 2f 3d 01 bf 2e a9 b4 bd 45 7a 15 c0 5a f9 15 be
       -0.50483984 -0.08821331 -2.3355877 -0.14645901
000010 74 d9 e3 bf c0 58 ce bf 09 85 28 bf f1 8c 8f bd
       -1.7800736 -1.6120834 -0.65827996 -0.07009304
000020 d3 3b a4 bd f6 7b 01 c0 f5 ef a4 bf 48 33 04 c0
       -0.08019223 -2.023191 -1.2885729 -2.06563
000030 0b 59 da bf 30 17 c2 bf b8 8d b7 bf 7d cf 9b bf
       -1.7058424 -1.5163326 -1.4340124 -1.2172695
000040 41 9b bd bf b1 b6 f1 bf 35 6d 91 bf 84 7b 03 c0
       -1.4813005 -1.8883878 -1.1361452 -2.0544138
000050 12 9b d4 3d 9d ae d7 bd ec 2f 04 c0 1a 7e db bd
       0.1038114 -0.10531352 -2.065425 -0.10717411
000060 4e 53 c1 bf 92 6b ec be 48 6c cc bf 7d fe e6 bf
       -1.5103548 -0.4617582 -1.5970545 -1.8046414
000070 8b d9 5f bf 3f f0 25 c0 3d 74 b3 bf 3d 84 a6 bf
       -0.8744132 -2.5927885 -1.4019848 -1.3009106
000080 d1 97 2e c0 5c 14 27 bf 38 30 d1 bf a7 32 cd bf
       -2.7280161 -0.6526544 -1.634284 -1.6031083
000090 e5 6b d0 bf 8f 74 0b bf 17 4e 89 bf 10 cf 62 bf
       -1.6282927 -0.5447473 -1.0726956 -0.885972
0000a0 0d e8 c6 bd b7 a7 72 bf 08 a0 f7 bf 10 ae 03 c0
       -0.09712229 -0.9478716 -1.9345713 -2.057499
0000b0 4d e8 e9 bf c6 12 a0 bf be dc 99 be 84 46 ae bd
       -1.8274018 -1.2505729 -0.30051225 -0.085095435
0000c0 d6 13 f1 bf c3 87 b1 bf 60 83 8c bf a3 b8 6e bf
       -1.8834178 -1.3869556 -1.0977592 -0.93250483
0000d0 f9 63 aa bf e8 22 0d c0 25 e6 fb bf 35 82 0e c0
       -1.3311759 -2.2052555 -1.967961 -2.2266972
0000e0 71 e9 61 bf 67 f0 cb be ef 11 db bf 4d 52 94 bf
       -0.8824683 -0.3983185 -1.7114848 -1.1587616
0000f0 96 65 3e 3e c8 90 aa bf 44 3e c2 be 46 fd 28 c0
       0.1859344 -1.3325434 -0.3793813 -2.6404586
000100 2f 4b 0b c0 43 37 d3 bf 89 83 19 c0 ad c7 06 c0
       -2.1764638 -1.650124 -2.3986533 -2.1059372
000110 76 a9 b6 bf a1 7c ce bf ad 1e 91 bf de dc b1 be
       -1.4270465 -1.6131784 -1.1337487 -0.3473882
000120 1d 5e 15 be 2e dc 0c c0 e3 d7 de be 0b 9e c9 bf
       -0.14586683 -2.2009387 -0.43524083 -1.5751356
000130 4a a2 bd bf e3 ad ea be 5e f1 12 bf 17 09 c7 bf
       -1.4815152 -0.4583579 -0.5739955 -1.5549649
000140 0c 30 ec bf 3d a3 51 3e 95 45 13 be 0f 59 a0 bf
       -1.8452163 0.20472427 -0.14382012 -1.2527179
000150 81 e2 b3 bf e1 9a b5 bf b2 5c 1b bc 4f 7f 05 c0
       -1.4053499 -1.418789 -0.0094825495 -2.0858953
000160 70 22 d0 bf 34 18 5e 3e 4d 55 32 bf f5 d2 06 bf
       -1.626051 0.2168892 -0.6966141 -0.52665645
000170 5e 00 d2 bf 37 9e 44 bf 4c 19 9b bd f0 b3 b4 bf
       -1.6406362 -0.76803917 -0.07573184 -1.4117413
000180 36 29 26 c0 26 64 01 c0 79 0b 21 c0 cf 64 d9 bf
       -2.5962653 -2.0217376 -2.5163252 -1.6983889
000190 1c bb 10 c0 1c 92 2f be 7b 27 53 be 5d 54 ba bf
       -2.2614202 -0.1714558 -0.2062053 -1.4556996
0001a0 9b f0 7d be 6d 52 b2 bf a3 a0 84 bf 5b e2 96 bf
       -0.24798815 -1.3931404 -1.0361522 -1.1787828
0001b0 23 fd 8e 3d 41 01 16 c0 8f e0 d4 bf 47 cf 1b 3e
       0.06981876 -2.3438265 -1.663103 0.15215789
0001c0 c5 a1 a3 bf 8e fe ac be ad a8 f5 bf 3a ef cf be
       -1.2783743 -0.3378796 -1.9192101 -0.40612203
0001d0 d9 44 09 c0 3e 52 f7 bf 2a ae b3 3e b0 f4 68 bf
       -2.1448271 -1.9321973 0.35093814 -0.90998363
0001e0 0c 45 7e bf 3f 10 ba be 42 1f c2 bf a7 16 04 be
       -0.9932411 -0.3634052 -1.5165789 -0.12899266
0001f0 82 d9 7c bd bd c3 19 c0 47 bf 18 bf fe c8 e0 bf
       -0.06173087 -2.402572 -0.59666866 -1.7561338
000200 c7 51 fd be 77 be a7 3e 20 66 31 c0 81 a9 61 bf
       -0.49476454 0.327625 -2.7718582 -0.8814927
000210 3e 0c 7f bf a9 4b f7 bf f7 2a d8 bf 2f f3 ad bf
       -0.99628055 -1.9319965 -1.6888112 -1.3589839
000220 48 ba 15 c0 d8 4f 15 bf 91 84 ea bf 69 ec 3b bf
       -2.3394947 -0.58324957 -1.8321706 -0.7340761
000230 e9 32 ef bf 80 fe 99 be 2e d4 57 3e af 44 0e c0
       -1.8687412 -0.3007698 0.21077034 -2.222942
000240 e2 a1 de bf 8b a5 2a bf 4b 1c 76 bf ea ee 4e bf
       -1.7393153 -0.6665885 -0.9613692 -0.80833304
000250 d2 bb cc 3d b4 f9 08 c0 95 f6 0e c0 eb 56 f7 bf
       0.099967614 -2.1402407 -2.2338002 -1.93234
000260 5c 85 b9 bf 2c 23 2c c0 f1 26 af bf d7 38 cb bf
       -1.4493823 -2.6896467 -1.3683759 -1.5876721
000270 a5 6d 16 c0 01 e7 fb be e2 73 bf be 09 49 f2 be
       -2.3504422 -0.4919968 -0.373931 -0.47321346
000280 51 a9 49 bf ab b8 84 bf 41 80 ee bf 0a 4a eb bc
       -0.7877398 -1.0368856 -1.863289 -0.028721828
000290 6a 2b 50 be f5 29 c1 bf 5f f8 10 c0 1e 96 d5 be
       -0.20329061 -1.5090929 -2.2651594 -0.41716093
0002a0 07 3a 0e c0 d6 2c 89 bf e3 6d 0a c0 f3 c8 62 be
       -2.2222917 -1.0716808 -2.162957 -0.22146969
0002b0 83 5b 4c bf 1a 11 87 bf ec f8 f1 bf 2f 9f c3 bd
       -0.79827136 -1.0552094 -1.890409 -0.09551846
0002c0 8c 09 ed bf f0 d2 a7 bf d3 ba 9c bf 46 e6 11 c0
       -1.8518538 -1.3111248 -1.2244514 -2.2796798
0002d0 a0 75 3e bf 7f 7f bf bf b2 73 c2 3d ce ac 26 bf
       -0.7439823 -1.4960784 0.094947234 -0.6510743
0002e0 f4 ae 81 bf a4 e1 cf bf b2 26 05 c0 9b 24 e1 bf
       -1.0131516 -1.6240735 -2.0804868 -1.7589296
0002f0 e8 e5 2c c0 78 54 eb be d0 69 99 bf 64 2a 8b 3e
       -2.7015324 -0.45962882 -1.1985416 0.2718078
000300 c1 45 ad bf 6a aa 39 bf 69 27 0d bf 37 3b bd bf
       -1.3536912 -0.72525656 -0.5513826 -1.4783696
000310 4f 23 c8 be f5 a2 01 c0 1a d3 8c bc 2b 49 10 c0
       -0.39089438 -2.025571 -0.017190505 -2.2544658
000320 34 63 4e bf 7c 3b 4e bf f1 31 04 c0 dc 01 95 bf
       -0.8062012 -0.80559516 -2.0655482 -1.1641192
000330 2a d2 c9 bf 37 2c 10 c0 84 0c d0 be 76 80 27 bf
       -1.5767262 -2.2526987 -0.4063455 -0.6543039
000340 f8 45 ab bf 61 0d d2 bf ff 02 7f 3c 22 a8 49 bf
       -1.3380728 -1.6410333 0.015564679 -0.78772175
000350 7d a4 2c bf 9d 08 c7 bf fb d8 8b bf 20 2e 9c bf
       -0.6743849 -1.5549504 -1.0925592 -1.2201576
000360 d5 8a 30 bf f6 b9 9c bf 5c 15 d6 bf 12 4b e4 bf
       -0.6896184 -1.2244251 -1.6725268 -1.783541
000370 ae ad be bf 3e e1 06 c0 86 18 35 bd b9 16 ba bf
       -1.4896753 -2.1074977 -0.04421284 -1.4538184
000380 96 fb 07 c0 40 7c e6 bf 26 62 f5 bf 06 a3 71 be
       -2.1247306 -1.8006668 -1.9170578 -0.23597345
000390 94 12 7f bf 21 c4 16 c0 86 01 a9 be 16 cb c1 bf
       -0.9963772 -2.3557208 -0.33008975 -1.5140102
0003a0 93 19 15 c0 2d bf 8a bf 52 75 16 c0 fb 01 14 c0
       -2.329686 -1.0839592 -2.3509107 -2.3126209
0003b0 bd 3a b8 bd 22 62 1a c0 a4 14 7e be 9f 11 ab bf
       -0.089955784 -2.4122396 -0.24812561 -1.3364753
0003c0 84 88 36 bf 11 5b 03 c0 af 81 1b c0 ef 8d cb be
       -0.71302056 -2.0524333 -2.4297903 -0.39756724
0003d0 4d c8 54 bf 0e 24 fd bf bd 01 53 bf ba 25 cf bf
       -0.83118135 -1.9776628 -0.8242453 -1.6183388
0003e0 0a e7 25 bf 81 54 1f c0 59 10 f0 bf 37 96 ec bf
       -0.6480566 -2.4895327 -1.8754989 -1.8483342
0003f0 c4 d9 8c bd f0 21 17 c0 ca 33 8d bf 33 21 ba bf
       -0.06877473 -2.3614464 -1.103143 -1.4541382

2.weight f4 [256, 512]
000000 68 6d 82 be 2e 0c c7 be 35 14 90 bd fc cc ff 3c
       -0.25474095 -0.3887648 -0.07035104 0.031225674
000010 96 58 03 bf a3 06 d2 bd c1 90 0e be 6b e5 9d 3e
       -0.51307046 -0.10255172 -0.13922407 0.30839095
000020 58 37 0f bf ad e6 7e 3d 80 8b 63 3d ca 53 92 be
       -0.5594382 0.06223171 0.05555296 -0.2857955
000030 59 18 3c 3f 0e f2 73 3d 93 f2 c0 bd 62 61 f6 3d
       0.7347465 0.059557013 -0.09421267 0.12030293
000040 4c 5e 7d bf 2a 2d 90 3e a7 50 f9 be fc d1 04 be
       -0.9897201 0.28159457 -0.48694345 -0.12970728
000050 ad 54 22 bd 77 d6 23 bf 96 cb 1d 3f 82 b4 e2 3d
       -0.039631534 -0.6399912 0.6163877 0.110695854
000060 6d 61 da be ed c9 ad be a2 1a 90 bd 33 a3 a8 bd
       -0.42652455 -0.3394312 -0.0703633 -0.08234253
000070 00 f5 9b bb 3e 54 38 3f ec d8 98 3e bc 8b b3 3e
       -0.004759431 0.72003543 0.29852998 0.35067546
000080 1a fc 6e be e3 86 82 bf 80 59 16 bf 88 18 a9 3e
       -0.23338357 -1.0197414 -0.58730316 0.33026528
000090 ea ea d2 be 63 7d a2 ba 45 d7 fc be 29 cc 68 3c
       -0.4119485 -0.0012396987 -0.49382988 0.014208832
0000a0 69 af 0b 3e 8b 2e ae be 9f e2 c0 be d8 83 89 be
       0.13641132 -0.34019884 -0.37672898 -0.268584
0000b0 35 a2 e0 3d 49 0c 64 3d 08 1a 2d bf 2b 61 34 be
       0.109684385 0.05567578 -0.67617846 -0.17615192
0000c0 53 99 05 be 6c 00 a9 bb 1d d4 ba 3e ae fa a5 3c
       -0.1304677 -0.005157521 0.36489955 0.020261135
0000d0 25 d8 b3 be 30 d3 47 3d f0 30 f3 bc 07 70 a2 bf
       -0.35125843 0.04878539 -0.029686421 -1.2690438
0000e0 8d 68 06 3e 47 1b c7 be 37 f5 32 bf ed 22 93 3d
       0.1312582 -0.38887998 -0.6990542 0.07184396
0000f0 3b 8f c3 3e ca ad 70 bd 02 ad aa 3d 06 30 53 bf
       0.38195214 -0.05875949 0.0833378 -0.8249515
000100 62 96 d5 bd ff 1c 48 bf 4d bd a9 bd 67 ea 4a be
       -0.10429074 -0.78169245 -0.082880594 -0.1981598
000110 bc a8 02 3e 65 bf 1c be 25 16 73 be cc a8 41 3e
       0.1275968 -0.15307386 -0.23738916 0.18912047
000120 b4 93 38 bd c9 73 14 bf ba 38 86 bf 47 fe 01 bf
       -0.045062736 -0.57989174 -1.0486062 -0.5077862
000130 0f cd c9 be 15 02 79 3e 5f 78 5b be 32 b2 b6 be
       -0.3941426 0.243172 -0.21432637 -0.35682827
000140 40 96 68 bf a2 2e 37 be 8a 1f b4 3e 36 38 0a bf
       -0.90854263 -0.17888883 0.35180312 -0.5399202
000150 52 65 cf 3d 87 b3 3e 3e 82 d3 20 be e5 cd bc 3e
       0.10126747 0.18623172 -0.15705684 0.36875835
000160 9f aa 24 be 18 ae 67 bf ce 32 be 3e 25 78 bf 3b
       -0.16080712 -0.9050002 0.37148136 0.0058431798
000170 77 38 83 3d b9 5b 80 3d 05 05 f0 3e f9 07 04 3f
       0.06407254 0.06267495 0.4687883 0.51574665
000180 16 89 fb 3d 34 0b 48 bf af 8b 1c bf dc 22 9d be
       0.122820064 -0.78142095 -0.6115064 -0.30690658
000190 63 76 da bd ab 04 ff bd e0 25 66 bd e6 de 14 3f
       -0.10667112 -0.12452062 -0.056188464 0.58152616
0001a0 d4 2b da 3c 9b 6f 1a be e4 53 86 3e 69 b1 56 3e
       0.026632227 -0.15081637 0.26235878 0.20966114
0001b0 40 d8 df be b6 ea ab bf ac bb 80 3c fc f8 b4 bd
       -0.43719673 -1.3431003 0.015714489 -0.088365525
0001c0 db e7 60 be 60 ba 89 ba 05 13 f9 3d 13 ac 4c bf
       -0.21963446 -0.0010507815 0.12161831 -0.79950064
0001d0 c5 4e 33 bd 39 ea 7c 3e 58 0f f3 be 93 72 bc be
       -0.043776292 0.24698724 -0.47472644 -0.36806163
0001e0 7b dd 27 bf eb f5 c2 be 43 26 95 3e 74 e0 f3 be
       -0.6557233 -0.38078246 0.29130754 -0.47632182
0001f0 6b 01 8f be 96 eb 27 bf f8 d2 3f bf 58 56 a2 be
       -0.2793077 -0.6559385 -0.7493129 -0.317065
000200 24 95 ee bd 46 fd f1 be ff 12 3d be 1d c7 c4 bf
       -0.1164954 -0.47263545 -0.18464278 -1.5373265
000210 26 6c 59 bf 65 74 8e 3e 5a ea 4d be d7 ff e9 be
       -0.84930646 0.27823177 -0.2010893 -0.45703003
000220 d3 4d bb 3e 5b 70 e2 be 09 56 f7 be 4d a1 f2 be
       0.36582813 -0.44226345 -0.48307827 -0.47388688
000230 c6 8c ff be ca 36 8c bd bf 99 de bd 87 b9 9c be
       -0.4991209 -0.06846388 -0.108691685 -0.30610296
000240 82 59 c9 be d0 6f c9 be da ff a2 3d ea af 26 3d
       -0.39326102 -0.3934312 0.07958956 0.04069511
000250 27 f4 b4 3d 3e 25 f4 bf 5a b0 04 3f 1b c0 8d bd
       0.08835631 -1.9073865 0.5183159 -0.06921407
000260 fe 33 11 be 16 64 5f bf ce bf fa be 9f fe 8f 3e
       -0.1417999 -0.87262094 -0.4897446 0.28123948
000270 26 b2 c6 bd 10 94 8a 3e 36 a0 89 3e 73 e8 89 3e
       -0.09701948 0.27066088 0.26880044 0.26935157
000280 c1 37 fc bc 2e 2f 12 3f d4 9c 39 bf 58 cf 9e 3e
       -0.030788304 0.5710324 -0.72504926 0.31017566
000290 2d 11 53 be 7d 72 2a 3f fa 63 d4 3d 8b b4 9f 3d
       -0.20612021 0.66580945 0.103706315 0.07798108
0002a0 9b c7 89 bf 53 80 98 3c 63 41 fc 3b 4a ed 01 bf
       -1.076404 0.018615877 0.0076982244 -0.507527
0002b0 57 0a e6 3d 26 af 13 3b 9a f6 95 bf cd c7 cd bb
       0.11232441 0.0022534817 -1.1715882 -0.0062799216
0002c0 20 c4 16 bc 98 e5 ae bd 9b b6 c5 3d 48 a6 7f bd
       -0.009202033 -0.08539885 0.0965397 -0.062414438
0002d0 51 d1 33 bf bc 8b 13 bf 84 e4 72 3e 51 5d 57 be
       -0.70241266 -0.5763509 0.23719984 -0.21031691
0002e0 b7 f1 d6 3d 2b 46 dc bd 48 1c ba 3e ad bc f1 3b
       0.10495322 -0.10755571 0.36349702 0.0073772282
0002f0 37 76 96 be 65 42 11 bf b4 50 18 bd ba e1 21 bf
       -0.29387066 -0.56741935 -0.03718634 -0.63235056
000300 a9 ce 2f bc 70 48 83 3e 9e c0 bf bc 7c fe 83 3e
       -0.010730424 0.25641203 -0.023407277 0.25780094
000310 56 48 43 3e ab 02 43 bd 34 bc cf bd 9a 46 2e be
       0.19070563 -0.047609966 -0.10143319 -0.1701912
000320 d2 0b 2d 3e d6 b3 d4 bf b9 74 a2 be fd f7 02 be
       0.1689904 -1.6617382 -0.31729677 -0.12789913
000330 5f 0b 4c 3e 3f a3 63 bf 57 0c de be 6b 75 01 be
       0.19926213 -0.8892097 -0.4336879 -0.12642448
000340 7d 5e 09 be 80 f4 c6 3e 5d 7f 8d bf 7e 8d 13 3e
       -0.1341495 0.38858414 -1.1054493 0.14409444
000350 0e 29 41 3d b7 9e d2 bc c4 64 12 3f 79 23 13 bf
       0.047158293 -0.025710447 0.57185006 -0.57476
000360 cc 3e fd 3e a4 48 96 3e 34 52 03 3f e3 4e 50 be
       0.49461973 0.29352295 0.51297307 -0.20342593
000370 d5 ce 51 be 6b 34 b8 be 7b f6 88 be f5 55 b3 be
       -0.20489056 -0.35977492 -0.2675055 -0.35026518
000380 c8 82 9d 3d a9 9b 70 3f 96 84 05 bf eb 5d 92 be
       0.0769096 0.9398752 -0.52155435 -0.2858728
000390 a7 bd 59 3e a6 90 3f bd aa 8a a7 3d 3f 26 fe 3c
       0.21263753 -0.046768807 0.08180745 0.031024097
0003a0 72 15 96 bd 75 56 8e bf d4 57 dc 3e f7 03 08 be
       -0.07328309 -1.1120135 0.43035758 -0.13282762
0003b0 f0 11 b0 be dd d6 c4 bf 03 dc 94 3e ad 91 21 3e
       -0.34388685 -1.5378071 0.29074106 0.15778227
0003c0 d3 f6 1e 3f 16 8e 17 3e 93 39 9e be 84 ca e6 be
       0.62095374 0.14800295 -0.309033 -0.45076382
0003d0 de 3c f9 bd e7 64 94 be a6 0c 15 bf a1 ca 94 3f
       -0.121698126 -0.28983232 -0.58222425 1.1624337
0003e0 58 d6 81 bf 57 8d c4 bf 16 57 00 be a9 3a 19 bc
       -1.0143538 -1.5355633 -0.1253322 -0.009352365
0003f0 f8 d9 44 bf 09 8f 39 3e 8b df 4b be 23 a3 91 bc
       -0.76895094 0.1812097 -0.19909494 -0.017777985

2.bias f4 [256]
000000 c4 ce 1a 3d b7 02 11 bf d6 54 01 bf 22 c0 21 3e
       0.037794843 -0.5664477 -0.50520074 0.15795949
000010 d2 e2 0c bf 9a 5e 95 be 2d 99 83 3e b0 a5 4c 3f
       -0.550336 -0.29173738 0.257028 0.7994032
000020 0f 29 d6 3d f8 7d bf 3c 1c db 06 bf 22 19 81 3e
       0.1045705 0.023375496 -0.52678084 0.25214487
000030 fa 77 0d 3f 7f 91 2e bd 8f b8 a9 bd 31 17 50 bd
       0.55261195 -0.042619225 -0.08287155 -0.050803367
000040 c5 1a 0f bf c5 44 50 be 1a 89 32 3d f5 61 8f bc
       -0.5590022 -0.20338733 0.04358778 -0.017502764
000050 16 cd 0d 3f 24 dc d3 bd 66 b1 32 3f 19 dc 48 3e
       0.5539106 -0.10344723 0.6980194 0.1961521
000060 e4 5c d5 3a f3 60 80 bf 76 f2 0f 3e a1 14 04 3f
       0.0016278294 -1.0029587 0.14057335 0.5159398
000070 73 48 21 3f d2 9e 47 3e b6 a3 1f 3e bc 61 38 bf
       0.63001174 0.19494179 0.15589795 -0.7202413
000080 d1 a4 b1 bc b5 09 8f bd cf 78 46 3d ff f9 83 be
       -0.021685036 -0.06984273 0.048455056 -0.2577667
000090 08 bb e5 be 0f 40 9c be 6c d1 a9 3d 75 6f 14 3f
       -0.44869256 -0.30517623 0.08291897 0.5798257
0000a0 35 b6 83 3d 62 c7 46 bd f5 4f 8a bd 7c 35 7c be
       0.064312376 -0.04852999 -0.06753532 -0.24629778
0000b0 9f 91 a8 bf 74 cf 39 bd fd 31 51 be 8d bc ee 3d
       -1.316944 -0.04536386 -0.20429225 0.11657057
0000c0 b1 ff 83 3f 95 5e 44 3b 32 f7 f9 3e 46 31 05 3f
       1.0312406 0.0029963602 0.48821408 0.5202831
0000d0 17 01 06 bf f6 d7 ef 3e 6a cf 20 be 16 25 3f be
       -0.5234541 0.46844453 -0.15704122 -0.18666491
0000e0 d4 ea 9a 3e 54 c4 56 bf cd 8a 23 bd fe bd 59 be
       0.30257285 -0.8389332 -0.039927293 -0.21263883
0000f0 a1 91 a5 3e 18 32 05 bc aa cc 55 3e 02 0d 16 3e
       0.3233767 -0.008129619 0.20878854 0.146534
000100 90 ed 3b be 22 38 36 bd 04 39 84 be 93 1f 98 bd
       -0.18352342 -0.044487126 -0.2582475 -0.07427897
000110 8e b5 08 bf d8 eb 9d bd 0d b2 8f bd da ab 4b bf
       -0.5340203 -0.07710999 -0.07016382 -0.795591
000120 ae ed 9d bd b5 63 2b bf 72 ce b5 3e ca b1 77 bf
       -0.077113494 -0.66949016 0.35509068 -0.9675566
000130 ef 63 17 3f 63 cb e2 be c6 57 a5 3e aa 3e 0b bd
       0.5913686 -0.44295797 0.32293528 -0.033995308
000140 ab 66 11 3d 36 56 b7 3e e8 e1 a8 bd 0f 34 4a bc
       0.035498302 0.3580796 -0.08246213 -0.012341513
000150 ca f9 49 bd be 2f 5b 3e c4 fa e2 be b3 93 e6 3d
       -0.049310483 0.21404931 -0.44331944 0.1125864
000160 ad 73 4f 3f bf 5b 0b bd 12 f3 f9 3e 97 8c cc 3e
       0.8103588 -0.034023043 0.4881826 0.39951012
000170 75 d6 80 3d 5c e4 67 3d b7 b1 1c 3f aa dc aa 3e
       0.062909044 0.056614265 0.6120867 0.33371478
000180 f6 36 f6 3e da 5a 1c 3e 49 f2 25 3e 3e 62 d1 3d
       0.48088807 0.15269032 0.16205706 0.10223816
000190 4e d5 82 3e eb 96 81 bd 3a e5 fd 3e f2 9c 20 bf
       0.25553364 -0.063276134 0.49588948 -0.6273948
0001a0 1a dd 51 3e 23 2e dd 3e 49 91 a7 bc a7 90 23 3f
       0.204945 0.43199262 -0.02045502 0.63892597
0001b0 25 84 36 bd 17 8a c2 be c0 a0 1d 3f 8d 9a da 3e
       -0.044559617 -0.3799598 0.6157341 0.42696038
0001c0 ce 09 4f 3e e0 f6 50 bf 0b 7b f3 bc 25 1f 26 3e
       0.20218584 -0.816267 -0.029721757 0.16222818
0001d0 39 73 45 be 86 f6 c3 3d 2d 9d 87 be 78 05 f9 be
       -0.19282235 0.09568505 -0.26487103 -0.48636985
0001e0 5d 46 bf 3e 88 2e d4 3d 29 c8 02 bd fd ee 73 3e
       0.3735837 0.10360438 -0.03192917 0.23821636
0001f0 f8 ed f2 be f2 b7 82 bf 49 d7 a5 bd 8f b6 8e 3f
       -0.4744718 -1.0212386 -0.08097703 1.1149462
000200 38 82 a7 3d 87 cd c0 bd d6 56 be be 02 84 8c bc
       0.08179134 -0.09414201 -0.37175626 -0.01715279
000210 58 25 19 3e 37 c1 8b bf cf ea 79 bd 54 84 df bd
       0.14955652 -1.091834 -0.061014947 -0.109139115
000220 8b ba 75 bd 9b 86 48 bf 28 89 f3 3e 79 ae d3 be
       -0.059992354 -0.7833039 0.4756558 -0.4134405
000230 b9 10 16 3f 95 89 ab 3e a3 d6 58 be e9 d5 99 bd
       0.58619267 0.33503404 -0.21175627 -0.07511503
000240 e2 56 48 39 cd 3a aa 3e 0a 28 a3 be e2 77 48 3e
       0.00019105853 0.33247986 -0.31866485 0.19576982
000250 80 3d ca bd 88 82 a7 3e f3 9b 34 3f c8 41 0e 3f
       -0.098750114 0.32716775 0.7055046 0.55569124
000260 b9 c9 73 bc 49 02 80 3d 42 8e a2 bd 5b b3 35 bf
       -0.014879637 0.06250436 -0.0793729 -0.709768
000270 0e 0f c6 bd bc 65 65 bd fc 4b 90 3e 18 7d 31 be
       -0.0967084 -0.056005225 0.2818297 -0.17332876
000280 11 67 65 3d 74 73 a3 3d 1a d6 dc bd 8c 72 41 3e
       0.056006495 0.07981005 -0.10783024 0.18891352
000290 26 5c 2f bf 75 87 0d 3e 51 77 31 bf 20 cf 33 bb
       -0.6849998 0.13821204 -0.6932269 -0.0027436689
0002a0 02 2e 04 3f 7b 78 0d bf 64 9e db bd bb c1 02 be
       0.516327 -0.55261964 -0.1072357 -0.12769215
0002b0 32 e3 f9 be b0 2b a1 bf 92 cb 99 3e 53 e3 ee 3e
       -0.4880615 -1.2591457 0.30038124 0.4665781
0002c0 92 25 90 3e 74 b3 95 3e c6 57 1b 3f 02 57 05 3e
       0.28153664 0.29238474 0.60680807 0.13021472
0002d0 86 da 18 be ca 8d 14 3e 93 59 91 3b df b8 36 bd
       -0.1492711 0.14507213 0.004435727 -0.0446099
0002e0 c0 4b 62 bd d3 65 39 3e 88 6e 6d bd 15 61 fe be
       -0.055248022 0.18105249 -0.05796674 -0.49683443
0002f0 29 41 bb 3d 4a a5 84 bd 29 81 12 3e 99 89 47 be
       0.09143288 -0.06476839 0.14307083 -0.19486083
000300 07 7e f9 3c df b2 a9 bd d8 09 e9 3d 98 da 9a be
       0.030455602 -0.0828607 0.11378831 -0.302449
000310 e6 63 62 3e 88 ca 15 3f 65 fa 2e bf 26 20 b7 bc
       0.2210842 0.58512163 -0.6835082 -0.022354197
000320 07 86 7c 3e 61 e6 a3 3c 25 3b 29 3e 7e 08 96 be
       0.24660502 0.020007314 0.16526468 -0.29303354
000330 f3 ff 84 3c 4d 77 dc be 6d 9f fd bd 63 a2 bb bd
       0.016235327 -0.4305977 -0.12383924 -0.09161832
000340 e0 ea 86 3e ea c6 31 bf ed ad 63 3c a1 6c 8d be
       0.2635107 -0.69444144 0.013896448 -0.2762194
000350 da 45 13 bd 16 96 3f bd a3 79 db bc f6 b4 6f 3e
       -0.035955288 -0.046773992 -0.0267914 0.23408875
000360 d7 2e 03 bd 05 49 a9 be e8 52 9c bd 53 3e e9 bd
       -0.03202709 -0.33063522 -0.076330006 -0.113888405
000370 c5 c7 96 3e 15 2c 30 bf 1c 75 1d 3e ff 39 d7 3b
       0.29449287 -0.68817264 0.15376705 0.006568193
000380 9a f2 17 3f 2c a1 3d be d1 a5 09 bc 35 b6 22 3e
       0.59354556 -0.18518513 -0.00840135 0.15889819
000390 12 09 d6 3e 9d 93 81 3f d3 8c 2f be f0 99 d0 3e
       0.41803795 1.0123173 -0.17143564 0.40742445
0003a0 49 3f c5 bb 73 e2 0a be 91 9e 98 bd 4c ae 14 3f
       -0.006019507 -0.13562946 -0.07452119 0.58078456
0003b0 98 c3 cb 3e 74 c1 8c bb da 7d 87 3c a6 b0 13 3e
       0.39797664 -0.0042955223 0.016539503 0.14422855
0003c0 c7 43 9c 3d 86 95 29 bf c3 b6 88 bd 5c 43 32 3e
       0.07630115 -0.6624378 -0.06675484 0.17408508
0003d0 d7 33 d7 3e ac bf cb 3e a0 b4 d4 bd 1c a3 b2 3f
       0.42031738 0.39794672 -0.10386014 1.3956027
0003e0 cd c5 c0 bf 5a 9a 62 be 2c 98 8d be 47 44 a0 bc
       -1.5060364 -0.22129193 -0.2765516 -0.019563807
0003f0 0f aa ac be 42 42 54 bd 22 b3 28 bd 33 36 df be
       -0.33723494 -0.051821 -0.04118646 -0.43596038

4.weight f4 [128, 256]
000000 41 08 00 3f 99 5b 9f 3d 2b ec 28 3e db e7 21 bf
       0.50012594 0.07781143 0.16496341 -0.6324441
000010 ef 84 0c be 76 cf 81 be 6a 71 cd 3e 31 fc 50 3e
       -0.13722585 -0.25353593 0.4012559 0.20408703
000020 dd 65 d6 3d af ce b9 3e 90 61 ed bc 97 83 d3 bd
       0.10468648 0.362905 -0.028977185 -0.10327833
000030 b2 d4 ce bd 79 cb b3 bd 5b 30 b8 bd 80 1f 64 ba
       -0.10099162 -0.08779044 -0.08993598 -0.00087022036
000040 9f c5 a5 be f3 55 5f be 2a 0e ba bc af 83 31 bd
       -0.32377335 -0.21810131 -0.022711832 -0.043338474
000050 36 df 1d 3e 3f 61 f7 3c d9 b4 4f bf 8f 36 b8 3e
       0.1541718 0.030197738 -0.81135327 0.35979125
000060 40 cc 2c bd be 50 cd bc ab 28 7f 3e 24 5f 74 3e
       -0.042186975 -0.025062915 0.24917857 0.23864418
000070 16 08 c6 3e 1a 2f 93 be 5e 85 d6 be 3a 31 8a be
       0.38678044 -0.28746873 -0.41898626 -0.26990682
000080 e0 48 8b 3b e8 9a be bc 18 52 85 bf 8c db 24 be
       0.0042506307 -0.023267224 -1.0415678 -0.16099375
000090 1f ef 75 3e f9 3f 3f 3f 85 15 d9 3c 34 79 ae 3d
       0.24016999 0.7470699 0.02649952 0.085192114
0000a0 52 b4 d3 3e 84 86 27 3c 4c 9e d6 be 03 6f c1 bf
       0.4134851 0.010224942 -0.41917646 -1.5112003
0000b0 1d 08 3f 3e b1 ce 03 3d 67 d7 01 3e 43 ad e6 3e
       0.18655439 0.03217954 0.12679826 0.45054063
0000c0 66 b7 58 3e 60 0b d0 bb 8f 45 d7 bd 68 fc 69 3f
       0.21163711 -0.0063490123 -0.10511314 0.91400766
0000d0 4f d5 70 be f7 7c 31 3f 79 e0 76 bf 66 4f 04 c0
       -0.23518871 0.69331306 -0.9643627 -2.067346
0000e0 bb ef 05 bf 62 59 11 be 8b a3 2b 3d 3d ab 32 3e
       -0.52318925 -0.14194253 0.041904014 0.17448135
0000f0 ae 94 20 be cb 3b 45 bc 3d 1c 71 3e c4 cc 91 be
       -0.15681717 -0.012038182 0.23545928 -0.28476536
000100 05 2b d6 bf 95 22 28 bd 9c 29 5a be 97 ea db bc
       -1.6731879 -0.041048605 -0.21304935 -0.02684526
000110 97 45 ad bb 84 b9 4f bc 18 ff f7 be 7d 99 58 bf
       -0.005287837 -0.012678508 -0.4843681 -0.84609205
000120 5a 89 7d bd b2 09 7a 3e 73 62 7f be f3 7d f5 be
       -0.061898567 0.24417761 -0.24939899 -0.47947654
000130 f3 8d c9 bd 9b 7d e6 3d 3d 6a 97 be 41 3a 8a bd
       -0.09841528 0.11254426 -0.2957324 -0.06749392
000140 d3 73 c2 be 91 e6 c6 3e ca 84 49 bb 40 c8 65 bf
       -0.37978992 0.38847783 -0.0030749314 -0.8975868
000150 ce e9 2e 3d 9d 49 23 be 19 5c e5 3c d3 44 0a bf
       0.042703442 -0.1594605 0.027998017 -0.5401127
000160 c6 11 a7 bd f7 0e 68 bd 6d e2 fe be 9b 15 2d 3e
       -0.08157687 -0.056654897 -0.49782124 0.16902773
000170 24 20 d9 be d5 f2 86 be 1a eb de 3d 48 4c 37 3d
       -0.42407334 -0.2635714 0.10884686 0.04475048
000180 90 79 2a bf 6c 53 37 3e 13 14 97 3e b8 ac af bf
       -0.6659174 0.17902917 0.29507503 -1.3724585
000190 33 22 29 be 28 bc 7c bd c9 49 05 bf 22 b8 51 3f
       -0.16516952 -0.061702877 -0.5206571 0.8192159
0001a0 99 b1 23 3d dc f5 da bd 79 41 0d bd 67 22 b7 be
       0.039964292 -0.10691425 -0.034486268 -0.35768434
0001b0 3e be 68 3d 05 0a 3f bf 0c cf 81 bc 06 ad 99 bd
       0.056822054 -0.74624664 -0.015845798 -0.07503705
0001c0 8d 80 0d 3f c3 6f 52 3e e3 af c0 3b f8 ae 94 3e
       0.5527428 0.20550446 0.0058803423 0.2903974
0001d0 a4 07 12 be 39 d1 63 3e d3 97 8d bd d7 95 4d be
       -0.14260727 0.22247781 -0.06913724 -0.2007669
0001e0 33 0d 67 be 67 44 ad bf c0 96 35 3d ab 67 01 bf
       -0.22563629 -1.35365 0.04433322 -0.5054881
0001f0 ee 7e c8 be 44 de 7a be 77 53 a7 bc 19 c8 bb 3e
       -0.3915934 -0.2449885 -0.020425541 0.366761
000200 3a 46 a2 3d 18 48 81 bb 5e 48 3d be 31 a0 41 bf
       0.07923551 -0.003945362 -0.18484637 -0.7563506
000210 6f aa 77 be 4f ec 33 3d c4 92 9b bc 27 f7 f7 3c
       -0.24186109 0.043926533 -0.018990882 0.030269219
000220 71 eb be bb b4 f1 7f 3d c8 8c d5 bf 08 ea 88 3e
       -0.0058264066 0.062486365 -1.6683588 0.26741052
000230 c1 e7 9c bd 29 2c 84 3d db af 26 bf 5d 73 89 bb
       -0.07661391 0.064537354 -0.65112084 -0.0041946606
000240 97 50 0c 3d 22 0a 3f 3f 4b 4a 2d bf f5 ea 71 be
       0.034256544 0.74624836 -0.6769149 -0.23624785
000250 cf ba a4 bc cd b6 9a be 66 1b b3 bd a2 ff 05 3f
       -0.020108609 -0.3021759 -0.0874546 0.5234319
000260 ec 22 3f 3e 5f 69 c9 be 76 d5 da bf 3c 6f 5d 3d
       0.18665665 -0.39338204 -1.7096393 0.05406116
000270 ce 88 4b 3d 0d c8 4e bd 49 2f f0 3d c4 ce a5 3c
       0.049691014 -0.050483752 0.11727769 0.020240195
000280 ea 28 f9 3d e9 17 b5 be 29 5d 7e bf 6b f2 1e bf
       0.12166007 -0.35369805 -0.993609 -0.6208865
000290 79 8b be 3e fb 8c d3 bd 48 dc 0e 3f 7e dc 9a be
       0.37215784 -0.10329624 0.5580487 -0.30246347
0002a0 f9 d7 95 be eb 4c 69 bf 1b 5a 85 3d 72 c4 05 3d
       -0.29266337 -0.9113299 0.06511327 0.032658048
0002b0 7d ef 82 be 0f 0d 5b bf 6b ee 07 3d dc 21 94 be
       -0.2557334 -0.855668 0.033186357 -0.28932083
0002c0 62 2c 90 3e c0 6d 0b 3f 63 22 19 bf 38 f4 af 3d
       0.2815886 0.5446434 -0.59818095 0.08591503
0002d0 9c 5a ab 3e 1c 3b 1a bd 4e bf cd 3b b3 47 62 bd
       0.33467567 -0.037654027 0.006278909 -0.05524416
0002e0 88 80 b4 3b c5 be 42 3e 21 7e 40 bd d6 88 98 bc
       0.005508486 0.19018085 -0.046995286 -0.018619936
0002f0 e4 e7 ae 3c 37 26 a3 be 7a 86 4b 3e 38 af c6 3e
       0.021350808 -0.31865093 0.19875517 0.38805556
000300 34 9c 29 bf dc 95 2d 3c 85 4a 66 bf e7 96 c8 be
       -0.6625397 0.010594811 -0.8995746 -0.3917763
000310 c9 7f 0f 3e 68 7f 4e 3f 8b 28 83 be 29 e3 23 3d
       0.1401359 0.80663157 -0.2561687 0.04001156
000320 da 6d 27 3e f6 04 7e bd 1e cc c9 bf fa 4a cd 3e
       0.16350499 -0.06201645 -1.5765417 0.40096265
000330 21 09 47 3e b1 e5 d9 be 4b 94 80 be 7e e3 ea bc
       0.19437076 -0.42558053 -0.2511314 -0.02867293
000340 97 f0 e5 be 6d 43 f4 bd 80 a8 b2 3d 71 50 0e 3e
       -0.44910118 -0.11926923 0.08723545 0.13897873
000350 8c 1d 03 3d 4c 25 70 bd 9d 86 2b 3d ac 75 91 bf
       0.0320106 -0.05862932 0.041876424 -1.1364036
000360 25 d0 1d bd 36 42 bc bd 03 a1 b8 3d 28 a2 c1 be
       -0.03852858 -0.09192316 0.090150855 -0.37819028
000370 c8 15 7b bf 42 a7 8a 3d 16 c1 88 bd 95 f7 6e 3e
       -0.9808011 0.06770183 -0.06677453 0.23336633
000380 2b a6 67 3e 3b 79 dc 3e ea ff 01 be 34 11 84 bf
       0.22621982 0.43061242 -0.1269528 -1.031775
000390 8f 48 20 bf 9e c9 da be 56 a4 a2 3e 48 5f ee bc
       -0.62610716 -0.42731947 0.31766003 -0.029098168
0003a0 74 90 4d 3c b2 23 b1 be 55 78 e7 3d ab a9 de be
       0.012546647 -0.34597546 0.113022484 -0.4348882
0003b0 98 cb 03 bd 2b 33 89 3c 91 54 03 be 6a 59 07 bd
       -0.032176584 0.016748032 -0.12825228 -0.033044256
0003c0 79 d2 00 b9 29 44 30 bc a2 6b 54 3d 92 43 45 bf
       -0.00012285438 -0.010758438 0.05186046 -0.7705623
0003d0 83 77 23 bf 75 57 67 3c 66 82 a1 3e c5 ea 73 3e
       -0.63854235 0.0141199725 0.315448 0.23820026
0003e0 16 95 db be 71 00 4f bc 8a bd 49 be 52 ca 7a bd
       -0.4288718 -0.012634383 -0.1970121 -0.061228104
0003f0 3a 67 6f 3e 9f 20 fb 3c 1c a0 cc bb 2c eb 3e 3e
       0.23379222 0.030655203 -0.0062446725 0.18644398

4.bias f4 [128]
000000 74 e2 4e 3f b2 7f e1 bd 56 f3 0a be 48 16 f7 3f
       0.8081429 -0.11010684 -0.13569388 1.9303675
000010 d3 8e dc 3f 2a 2e 13 3f 0c 94 d6 3e c0 34 94 be
       1.7231086 0.57492316 0.41909826 -0.28946495
000020 a3 ab 26 3f 20 ac e6 be c4 eb 23 be f5 03 32 3f
       0.65105647 -0.45053196 -0.16007906 0.6953729
000030 8f 6f 0b be 26 21 39 3f d6 c6 1a 3f e4 f3 0c 40
       -0.13616775 0.72316206 0.6045965 2.202386
000040 05 b4 34 be 39 03 a6 3d a9 63 6c be 7f 84 13 40
       -0.17646797 0.081060834 -0.23084892 2.304962
000050 c8 6d 22 3e aa ae 3a bd 68 c5 f8 3e 09 85 29 be
       0.1586219 -0.04557673 0.4858811 -0.16554655
000060 06 db 53 be 0b 2b 2a 3e 06 25 0c be ca e1 a1 be
       -0.2068902 0.16617982 -0.13685998 -0.31617576
000070 8a ae ea 3f 7a 63 eb 3f 7e bc d6 3f 65 44 92 3e
       1.8334515 1.8389733 1.6776273 0.28567806
000080 48 62 a3 3f fc 4f a2 be 83 b6 6a 3e 82 1d 37 bc
       1.2764368 -0.31701648 0.22921185 -0.011176469
000090 64 50 1d bd b0 f1 01 3f 54 d5 91 3f 2f b2 ae 3e
       -0.038406745 0.5075941 1.1393228 0.34120318
0000a0 d1 fa ef 3f a4 61 c8 3f ee 35 25 3f be 30 88 bc
       1.8748418 1.5654798 0.64535415 -0.016624805
0000b0 53 99 26 3f 3c 6c 12 3f 52 20 50 be 9c d3 a2 3d
       0.65077704 0.571964 -0.20324829 0.079505175
0000c0 3f 6c 36 be 35 19 2c 3a 63 87 bf 3f 1c 42 25 3e
       -0.1781473 0.00065650354 1.4963192 0.161385
0000d0 9c 21 a3 3f fd 28 5f 3f 19 d2 f8 bc 9f 95 c6 3e
       1.2744632 0.8717192 -0.03037362 0.38786027
0000e0 a8 d6 32 3f 14 fa e1 3d e6 c1 23 3f 86 4b 70 3f
       0.6985879 0.11034027 0.6396774 0.9386524
0000f0 22 07 c6 3f be 2f 34 3f f1 c0 9a 3f 2e df ac 3d
       1.5470927 0.7038535 1.2090131 0.08441006
000100 66 dc 0e 40 ad ed 7d be 05 00 bb be 04 9e cd bd
       2.232202 -0.24797697 -0.36523452 -0.10039905
000110 fc 63 0f 40 0c 93 71 3f ad 2e af 3f 3a ab 22 be
       2.2404776 0.94365 1.3686119 -0.1588563
000120 2b 2a 65 3f 11 7a dd 3f a3 a0 e5 3e 5f d0 55 be
       0.8951747 1.7302877 0.4484912 -0.20880269
000130 91 2e 7d 3e 18 9a c0 3e b6 6d 47 bf b3 ae 24 3c
       0.24724795 0.37617564 -0.7790178 0.010051417
000140 b2 fc 16 3f 46 e9 7b 3e 7e 71 95 3e e5 6a 28 bf
       0.5897933 0.24600706 0.2918815 -0.6578811
000150 82 59 04 40 bf d0 ba 3f 8c 9c 54 be 19 80 83 3e
       2.0679631 1.4594954 -0.20762843 0.25683668
000160 27 b1 ab 3f 7d d5 ac 3f f9 7e 3e 3f 6f 83 e3 3e
       1.3413438 1.3502651 0.74412495 0.44436213
000170 7b 68 98 3f 87 7f f8 3f 5d ee a9 3e 55 b7 9e 3f
       1.1906885 1.9413918 0.3318967 1.2399698
000180 a0 1d 04 40 0f d8 86 bd d9 f7 14 3f 25 7f 08 3f
       2.0643082 -0.06584179 0.58190686 0.5331901
000190 10 c4 39 3f c8 db b9 be e9 42 6d 3f 8b 2a 42 be
       0.7256479 -0.36300492 0.9268022 -0.18961541
0001a0 b0 b3 30 3f f3 62 da 3f 69 6a 87 bd f6 11 55 3f
       0.6902418 1.7061447 -0.06612093 0.8323053
0001b0 3e 5f 83 3f bb eb e9 3e 32 1e db 3f b1 95 89 be
       1.0263441 0.4568766 1.711859 -0.26872018
0001c0 39 9a 00 be 7a 45 08 be 0e ce 03 be aa 9c 9b 3f
       -0.12558831 -0.13307753 -0.12871572 1.2157185
0001d0 ab 45 03 40 0c 72 31 be 93 53 20 be b7 ce 87 be
       2.0511272 -0.17328662 -0.15656881 -0.26524898
0001e0 e6 5c 4c be dc cc cf 3e e4 c0 a9 3e 40 b6 33 be
       -0.19957313 0.40585983 0.33154976 -0.17549992
0001f0 9e 62 5a 3f 73 64 01 3d ad 6e 9d bd 18 79 80 3f
       0.8530673 0.031589936 -0.07687125 1.0036955

6.weight f4 [6, 128]
000000 35 00 71 bd 34 a9 4e 39 21 ac 27 bd 97 f8 7b 3d
       -0.058838088 0.00019708724 -0.04093564 0.06151637
000010 e2 2e 20 bd c8 ab be ba 88 6f 81 bd 76 cb 66 bc
       -0.03910721 -0.0014547044 -0.06320101 -0.014086595
000020 1b e4 c6 bc af eb 6a bd be 6f 41 bb 4e 56 1a bd
       -0.024278691 -0.05735367 -0.0029516066 -0.037679963
000030 f7 6e bd bc d7 f6 0c 3d a0 97 b5 3d ac 04 5f 3d
       -0.023124201 0.034415092 0.08866811 0.054447815
000040 c7 92 c2 3d d8 6c 98 bd 3c a1 0c bd e0 3f 0f 3d
       0.09500652 -0.07442635 -0.034333453 0.034973025
000050 27 c2 d4 bb 47 df 76 bc b8 6f 18 3d ad ea a4 bb
       -0.0064928713 -0.015067882 0.03721592 -0.0050328583
000060 31 52 5f 3c 77 3d 0a 3d 0e eb 92 3d a6 dc 94 3d
       0.013630436 0.033750024 0.071737394 0.07268648
000070 89 21 04 3d 3b 42 79 bd 98 c1 cf bc a4 b0 0c bd
       0.032258544 -0.060854178 -0.025360867 -0.034348145
000080 3c a8 c3 3c 4b 13 07 bd b7 a0 08 3c 68 e0 fb 3d
       0.023883931 -0.032977384 0.008339099 0.122986615
000090 c1 b8 6a bd 0e a0 ac bb 33 6f 81 3b 60 c2 fb 3c
       -0.0573051 -0.0052681034 0.0039500236 0.030732334
0000a0 3d 51 4f 3d 42 5a 05 3c 8b fb ad bb 97 c6 32 3d
       0.050614584 0.008139195 -0.0053095273 0.04364642
0000b0 5c d8 27 ba a2 3d 12 bc 22 b8 81 3c 0e d1 5c bb
       -0.00064027845 -0.008925827 0.015834872 -0.0033693942
0000c0 02 8d df bc 43 ec 96 3b 38 30 ef 3c 4e 23 21 bd
       -0.027288917 0.0046058013 0.029197797 -0.03934031
0000d0 8a a7 9b bc c0 ce 03 3d 2e fd 95 3b 1c 66 0a bd
       -0.019000787 0.032179594 0.0045773005 -0.033788785
0000e0 46 26 4d 3c ec 2d b8 bd 7c 77 07 bc f4 4e 91 3a
       0.012521332 -0.08993134 -0.008268233 0.0011086152
0000f0 99 58 51 bd e6 2b 79 3c 7e fd 9a bc 96 f1 18 3d
       -0.051109884 0.01520822 -0.018919703 0.03733977
000100 93 36 39 3d 10 e5 f7 bc 8b 1a b5 bc cf bd e1 bc
       0.04521806 -0.030260593 -0.022107383 -0.027556328
000110 0e 83 90 3d 9a 5d 06 3d da 28 13 3d 28 61 42 bd
       0.07056247 0.03280411 0.03592763 -0.047455937
000120 aa fa d4 bc cc cd 33 bd 05 5d ab bc 4e 73 d1 3a
       -0.025998432 -0.043897435 -0.020918379 0.0015979798
000130 79 4c 54 bd 37 51 90 3c 81 17 3a 3d f0 c2 4e bd
       -0.051830743 0.017616851 0.04543257 -0.050478876
000140 01 59 45 bd f5 1e 75 3d 67 c6 9b bc 8e ae 86 3c
       -0.048180584 0.059843976 -0.019015504 0.016440656
000150 ad 4d 52 3d 6b 33 42 bd 9c ff 88 3d 9a b5 7a 3d
       0.05134361 -0.047412317 0.066893786 0.061208345
000160 47 52 c2 3c fd dc 11 3d fa 11 63 bd 3b 1a 86 bd
       0.023720874 0.03561114 -0.055437066 -0.06547972
000170 54 71 ba bc 7c bb 3e 3d a6 19 a4 bc 36 fd 6f 3d
       -0.022759117 0.046565518 -0.020031761 0.05859109
000180 60 76 25 3d 2a e4 cf 3b 85 8d fd bc 73 0f 69 bd
       0.040396094 0.006344338 -0.03095127 -0.0568995
000190 24 c8 eb 3c c6 38 a4 bc 4c e6 6a bd 64 3b 57 bd
       0.028781958 -0.020046603 -0.057348534 -0.052546874
0001a0 77 c6 b0 bc fb 60 a1 bb cc ed 24 be 0f 06 de bc
       -0.02157901 -0.004924891 -0.16106337 -0.027102498
0001b0 ee 31 39 bc ea 15 f4 bc eb 02 cb 3c 17 cb 88 bd
       -0.011303408 -0.029795606 0.024781665 -0.06679361
0001c0 08 57 3a bc 8b 5b 88 bd c2 e4 68 3d 2e 19 7f bd
       -0.011373289 -0.066580854 0.056858785 -0.062279873
0001d0 c6 b0 17 3d 53 73 67 bc f0 b6 f5 bc 85 ad d0 3c
       0.03703382 -0.0141266165 -0.029994458 0.025473366
0001e0 ec fb 08 3d 6c 93 2b 3d 31 90 45 bc fe ff 00 3c
       0.033443376 0.04188864 -0.012058304 0.007873533
0001f0 4b 32 c5 3c 30 77 4c 3d 33 2b f9 3c d9 b9 d9 bc
       0.024071833 0.049918354 0.030416107 -0.026577877
000200 5e db fd bb ea 48 94 bc 88 e8 da 3c f0 7a 07 bc
       -0.007747098 -0.018101174 0.026722208 -0.008269057
000210 50 08 80 3d e5 61 35 bd 5c 42 9f bd 0a 83 47 bc
       0.062515855 -0.044282813 -0.07776329 -0.012177238
000220 76 c3 0a bd 74 8d 1f 3e b9 ca 68 3d b4 7c 94 bc
       -0.033877812 0.15581304 0.056833956 -0.01812587
000230 9a 9c d8 bc 92 4e 1e 3d 6a d9 2c bc 1d 39 ab 3c
       -0.026441861 0.03864915 -0.010549882 0.020901257
000240 da 5b 5e bc 40 c8 d1 3c c6 8c 8c 3c 63 41 70 bd
       -0.013571704 0.025608182 0.01715697 -0.058656108
000250 77 4c 85 3d 6f 12 2e bc 6b 2a 7e 3d 0f ca a7 bc
       0.06508725 -0.010624512 0.06205217 -0.020482091
000260 79 e1 6c bd 85 87 0e 3d 28 81 87 ba 9c 12 2c 3d
       -0.057832215 0.03479721 -0.0010338174 0.042009935
000270 45 fb 37 3d d2 5c a3 bd c2 62 5d bd 54 e7 b2 3c
       0.044917364 -0.079766884 -0.05404926 0.021838821
000280 7a 2a cb bb c1 24 0e be 58 32 7c bd 9a 6b 82 bc
       -0.006200132 -0.13881208 -0.06157145 -0.015920449
000290 c4 11 df 3b 28 8e 4b bd 3d d6 e6 3c 44 5d 22 3d
       0.0068075377 -0.049696118 0.028178329 0.039639726
0002a0 4f 5f e7 3c 9a 90 f1 bc 5a 86 d6 bc 2d d2 0a bc
       0.028243689 -0.029487897 -0.02618711 -0.008472961
0002b0 68 9a b4 bd d4 e5 00 bd 9c b8 22 3c 1c 8c 57 bd
       -0.08818513 -0.03146918 0.00993171 -0.052623853
0002c0 77 b3 dc 3b 57 df e9 bc 49 f8 25 3d 54 ca 58 3d
       0.006735261 -0.02854888 0.040519986 0.05292733
0002d0 9f 91 83 3c 4d ac 7c bb f2 75 0a bd 54 e8 20 bd
       0.016060648 -0.0038554848 -0.033803888 -0.039284065
0002e0 29 d1 21 bd 6b 6e 8b 3d 48 b5 3d bc 1e 3f 8e bc
       -0.03950611 0.0680817 -0.011578865 -0.017364081
0002f0 f0 f7 7f bb 81 ab 01 bd 11 0a db 3c 19 38 82 bc
       -0.0039057694 -0.0316577 0.026738198 -0.01589589
000300 55 09 70 3d ea b7 92 bd 3f 98 44 3d 33 00 a4 bc
       0.05860265 -0.07163985 0.047996756 -0.020019626
000310 73 c4 22 bd 50 fc e2 3c 7f 90 2b bc 54 84 15 3d
       -0.03973813 0.027708203 -0.010471462 0.03650315
000320 44 66 1f 3d 6c 4c ed 3c cf 0a c3 bd b3 b3 7e bd
       0.038915887 0.028967105 -0.09523546 -0.062183093
000330 e7 70 9b 3b 2e 8c 23 3b fc 9f 5c bb 8e e6 9a 3d
       0.0047436836 0.002495538 -0.0033664694 0.07563506
000340 eb 9f 10 bc d5 c3 f4 3a 63 70 ad 3b 96 ac 1b 3c
       -0.00882719 0.0018674085 0.0052929386 0.009501597
000350 fd db 6a bc f5 d9 f6 ba 6e 61 64 bc 26 9b dc bc
       -0.014334676 -0.0018833267 -0.013939245 -0.02692945
000360 71 85 44 3c f1 52 d2 3b ea 10 7e bd 9a 11 6a bc
       0.011994706 0.006418579 -0.06202785 -0.014286423
000370 a7 14 41 bc cc 15 35 3c dc 89 9c bd d9 1f 2e 3d
       -0.011784709 0.01105256 -0.07643482 0.04251084
000380 23 b9 7c 3d b6 4e 7d bc fa f9 05 3c 3a 42 e1 bc
       0.061699998 -0.015460661 0.008177275 -0.0274974
000390 a2 1f e2 bb 14 0a f4 3c c0 73 ef 3c 16 79 01 bd
       -0.0069007436 0.029789962 0.029229999 -0.031609617
0003a0 f8 8e 55 3d 23 17 95 3d ca 6f c3 bd 64 f5 c0 bc
       0.0521383 0.072798036 -0.095428064 -0.023554511
0003b0 d4 92 d7 bc c4 55 63 3c a0 fc d7 bc da 0c 09 3d
       -0.02631513 0.013875429 -0.026365578 0.03345952
0003c0 a0 07 c3 bc 71 be 0e bd 2d 2a 19 bd 07 5f 33 3c
       -0.023807347 -0.034849588 -0.037393738 0.010947949
0003d0 86 d0 5b bd 72 5c 51 bd 71 de f8 bc 56 9f ac 3d
       -0.05366566 -0.051113553 -0.030379506 0.084288284
0003e0 ce cd 94 3c 94 9b b5 3c f9 36 97 bc 87 54 b7 bc
       0.018164542 0.022168912 -0.01845883 -0.022379173
0003f0 20 4f 0b bd 87 d4 c6 bd 3f 96 1b 3d d7 93 52 3c
       -0.034011006 -0.09708505 0.037985083 0.012852631

6.bias f4 [6]
000000 24 04 a0 3d af 7b 04 bd 7a 42 1e bc 4b 18 73 bd
       0.0781329 -0.032344516 -0.009659404 -0.05934934
000010 e0 78 93 bd 5b de e9 3c
       -0.072007895 0.02854841
